…
2025-04-01 15:45:01,888 - speechbrain.utils.parameter_transfer - DEBUG - Redirecting (loading from local path): embedding_model -> /data/anakuzne/speechbrain/recipes/UrbanSound8k/SoundClassification/ecapa_tdnn/debugq/save/embedding_model.ckpt
2025-04-01 15:45:01,888 - speechbrain.utils.parameter_transfer - DEBUG - Redirecting (loading from local path): classifier -> /data/anakuzne/speechbrain/recipes/UrbanSound8k/SoundClassification/ecapa_tdnn/debugq/save/classifier.ckpt
2025-04-01 15:45:01,961 - speechbrain.utils.checkpoints - WARNING - During parameter transfer to ECAPA_TDNNQ(
  (blocks): ModuleList(
    (0): TDNNBlock(
      (conv): Conv1d(
        (conv): Conv1d(80, 1024, kernel_size=(5,), stride=(1,))
      )
      (activation): ReLU()
      (norm): BatchNorm1d(
        (norm): BatchNorm1d(1024, eps=1e-05, momentum=0.1, affine=True, track_running_stats=True)
      )
      (dropout): Dropout1d(p=0.0, inplace=False)
    )
    (1): SERes2NetBlock(
      (tdnn1): TDNNBlock(
        (conv): Conv1d(
          (conv): Conv1d(1024, 1024, kernel_size=(1,), stride=(1,))
        )
        (activation): ReLU()
        (norm): BatchNorm1d(
          (norm): BatchNorm1d(1024, eps=1e-05, momentum=0.1, affine=True, track_running_stats=True)
        )
        (dropout): Dropout1d(p=0.0, inplace=False)
      )
      (res2net_block): Res2NetBlock(
        (blocks): ModuleList(
          (0-6): 7 x TDNNBlock(
            (conv): Conv1d(
              (conv): Conv1d(128, 128, kernel_size=(3,), stride=(1,), dilation=(2,))
            )
            (activation): ReLU()
            (norm): BatchNorm1d(
              (norm): BatchNorm1d(128, eps=1e-05, momentum=0.1, affine=True, track_running_stats=True)
            )
            (dropout): Dropout1d(p=0.0, inplace=False)
          )
        )
      )
      (tdnn2): TDNNBlock(
        (conv): Conv1d(
          (conv): Conv1d(1024, 1024, kernel_size=(1,), stride=(1,))
        )
        (activation): ReLU()
        (norm): BatchNorm1d(
          (norm): BatchNorm1d(1024, eps=1e-05, momentum=0.1, affine=True, track_running_stats=True)
        )
        (dropout): Dropout1d(p=0.0, inplace=False)
      )
      (se_block): SEBlock(
        (conv1): Conv1d(
          (conv): Conv1d(1024, 128, kernel_size=(1,), stride=(1,))
        )
        (relu): ReLU(inplace=True)
        (conv2): Conv1d(
          (conv): Conv1d(128, 1024, kernel_size=(1,), stride=(1,))
        )
        (sigmoid): Sigmoid()
      )
    )
    (2): SERes2NetBlock(
      (tdnn1): TDNNBlock(
        (conv): Conv1d(
          (conv): Conv1d(1024, 1024, kernel_size=(1,), stride=(1,))
        )
        (activation): ReLU()
        (norm): BatchNorm1d(
          (norm): BatchNorm1d(1024, eps=1e-05, momentum=0.1, affine=True, track_running_stats=True)
        )
        (dropout): Dropout1d(p=0.0, inplace=False)
      )
      (res2net_block): Res2NetBlock(
        (blocks): ModuleList(
          (0-6): 7 x TDNNBlock(
            (conv): Conv1d(
              (conv): Conv1d(128, 128, kernel_size=(3,), stride=(1,), dilation=(3,))
            )
            (activation): ReLU()
            (norm): BatchNorm1d(
              (norm): BatchNorm1d(128, eps=1e-05, momentum=0.1, affine=True, track_running_stats=True)
            )
            (dropout): Dropout1d(p=0.0, inplace=False)
          )
        )
      )
      (tdnn2): TDNNBlock(
        (conv): Conv1d(
          (conv): Conv1d(1024, 1024, kernel_size=(1,), stride=(1,))
        )
        (activation): ReLU()
        (norm): BatchNorm1d(
          (norm): BatchNorm1d(1024, eps=1e-05, momentum=0.1, affine=True, track_running_stats=True)
        )
        (dropout): Dropout1d(p=0.0, inplace=False)
      )
      (se_block): SEBlock(
        (conv1): Conv1d(
          (conv): Conv1d(1024, 128, kernel_size=(1,), stride=(1,))
        )
        (relu): ReLU(inplace=True)
        (conv2): Conv1d(
          (conv): Conv1d(128, 1024, kernel_size=(1,), stride=(1,))
        )
        (sigmoid): Sigmoid()
      )
    )
    (3): SERes2NetBlock(
      (tdnn1): TDNNBlock(
        (conv): Conv1d(
          (conv): Conv1d(1024, 1024, kernel_size=(1,), stride=(1,))
        )
        (activation): ReLU()
        (norm): BatchNorm1d(
          (norm): BatchNorm1d(1024, eps=1e-05, momentum=0.1, affine=True, track_running_stats=True)
        )
        (dropout): Dropout1d(p=0.0, inplace=False)
      )
      (res2net_block): Res2NetBlock(
        (blocks): ModuleList(
          (0-6): 7 x TDNNBlock(
            (conv): Conv1d(
              (conv): Conv1d(128, 128, kernel_size=(3,), stride=(1,), dilation=(4,))
            )
            (activation): ReLU()
            (norm): BatchNorm1d(
              (norm): BatchNorm1d(128, eps=1e-05, momentum=0.1, affine=True, track_running_stats=True)
            )
            (dropout): Dropout1d(p=0.0, inplace=False)
          )
        )
      )
      (tdnn2): TDNNBlock(
        (conv): Conv1d(
          (conv): Conv1d(1024, 1024, kernel_size=(1,), stride=(1,))
        )
        (activation): ReLU()
        (norm): BatchNorm1d(
          (norm): BatchNorm1d(1024, eps=1e-05, momentum=0.1, affine=True, track_running_stats=True)
        )
        (dropout): Dropout1d(p=0.0, inplace=False)
      )
      (se_block): SEBlock(
        (conv1): Conv1d(
          (conv): Conv1d(1024, 128, kernel_size=(1,), stride=(1,))
        )
        (relu): ReLU(inplace=True)
        (conv2): Conv1d(
          (conv): Conv1d(128, 1024, kernel_size=(1,), stride=(1,))
        )
        (sigmoid): Sigmoid()
      )
    )
  )
  (quantizer): ResidualVectorQuantize(
    (quantizers): ModuleList(
      (0): VectorQuantize(
        (in_proj): ParametrizedConv1d(
          1024, 64, kernel_size=(1,), stride=(1,)
          (parametrizations): ModuleDict(
            (weight): ParametrizationList(
              (0): _WeightNorm()
            )
          )
        )
        (out_proj): ParametrizedConv1d(
          64, 1024, kernel_size=(1,), stride=(1,)
          (parametrizations): ModuleDict(
            (weight): ParametrizationList(
              (0): _WeightNorm()
            )
          )
        )
        (codebook): Embedding(1024, 64)
      )
    )
  )
  (mfa): TDNNBlock(
    (conv): Conv1d(
      (conv): Conv1d(1536, 1536, kernel_size=(1,), stride=(1,))
    )
    (activation): ReLU()
    (norm): BatchNorm1d(
      (norm): BatchNorm1d(1536, eps=1e-05, momentum=0.1, affine=True, track_running_stats=True)
    )
    (dropout): Dropout1d(p=0.0, inplace=False)
  )
  (asp): AttentiveStatisticsPooling(
    (tdnn): TDNNBlock(
      (conv): Conv1d(
        (conv): Conv1d(4608, 128, kernel_size=(1,), stride=(1,))
      )
      (activation): ReLU()
      (norm): BatchNorm1d(
        (norm): BatchNorm1d(128, eps=1e-05, momentum=0.1, affine=True, track_running_stats=True)
      )
      (dropout): Dropout1d(p=0.0, inplace=False)
    )
    (tanh): Tanh()
    (conv): Conv1d(
      (conv): Conv1d(128, 1536, kernel_size=(1,), stride=(1,))
    )
  )
  (asp_bn): BatchNorm1d(
    (norm): BatchNorm1d(3072, eps=1e-05, momentum=0.1, affine=True, track_running_stats=True)
  )
  (fc): Conv1d(
    (conv): Conv1d(3072, 192, kernel_size=(1,), stride=(1,))
  )
) loading from /data/anakuzne/speechbrain/recipes/UrbanSound8k/SoundClassification/ecapa_tdnn/debugq/save/embedding_model.ckpt, the transferred parameters did not have parameters for the key: quantizer.quantizers.0.in_proj.bias
2025-04-01 15:45:01,962 - speechbrain.utils.checkpoints - WARNING - During parameter transfer to ECAPA_TDNNQ(
  (blocks): ModuleList(
    (0): TDNNBlock(
      (conv): Conv1d(
        (conv): Conv1d(80, 1024, kernel_size=(5,), stride=(1,))
      )
      (activation): ReLU()
      (norm): BatchNorm1d(
        (norm): BatchNorm1d(1024, eps=1e-05, momentum=0.1, affine=True, track_running_stats=True)
      )
      (dropout): Dropout1d(p=0.0, inplace=False)
    )
    (1): SERes2NetBlock(
      (tdnn1): TDNNBlock(
        (conv): Conv1d(
          (conv): Conv1d(1024, 1024, kernel_size=(1,), stride=(1,))
        )
        (activation): ReLU()
        (norm): BatchNorm1d(
          (norm): BatchNorm1d(1024, eps=1e-05, momentum=0.1, affine=True, track_running_stats=True)
        )
        (dropout): Dropout1d(p=0.0, inplace=False)
      )
      (res2net_block): Res2NetBlock(
        (blocks): ModuleList(
          (0-6): 7 x TDNNBlock(
            (conv): Conv1d(
              (conv): Conv1d(128, 128, kernel_size=(3,), stride=(1,), dilation=(2,))
            )
            (activation): ReLU()
            (norm): BatchNorm1d(
              (norm): BatchNorm1d(128, eps=1e-05, momentum=0.1, affine=True, track_running_stats=True)
            )
            (dropout): Dropout1d(p=0.0, inplace=False)
          )
        )
      )
      (tdnn2): TDNNBlock(
        (conv): Conv1d(
          (conv): Conv1d(1024, 1024, kernel_size=(1,), stride=(1,))
        )
        (activation): ReLU()
        (norm): BatchNorm1d(
          (norm): BatchNorm1d(1024, eps=1e-05, momentum=0.1, affine=True, track_running_stats=True)
        )
        (dropout): Dropout1d(p=0.0, inplace=False)
      )
      (se_block): SEBlock(
        (conv1): Conv1d(
          (conv): Conv1d(1024, 128, kernel_size=(1,), stride=(1,))
        )
        (relu): ReLU(inplace=True)
        (conv2): Conv1d(
          (conv): Conv1d(128, 1024, kernel_size=(1,), stride=(1,))
        )
        (sigmoid): Sigmoid()
      )
    )
    (2): SERes2NetBlock(
      (tdnn1): TDNNBlock(
        (conv): Conv1d(
          (conv): Conv1d(1024, 1024, kernel_size=(1,), stride=(1,))
        )
        (activation): ReLU()
        (norm): BatchNorm1d(
          (norm): BatchNorm1d(1024, eps=1e-05, momentum=0.1, affine=True, track_running_stats=True)
        )
        (dropout): Dropout1d(p=0.0, inplace=False)
      )
      (res2net_block): Res2NetBlock(
        (blocks): ModuleList(
          (0-6): 7 x TDNNBlock(
            (conv): Conv1d(
              (conv): Conv1d(128, 128, kernel_size=(3,), stride=(1,), dilation=(3,))
            )
            (activation): ReLU()
            (norm): BatchNorm1d(
              (norm): BatchNorm1d(128, eps=1e-05, momentum=0.1, affine=True, track_running_stats=True)
            )
            (dropout): Dropout1d(p=0.0, inplace=False)
          )
        )
      )
      (tdnn2): TDNNBlock(
        (conv): Conv1d(
          (conv): Conv1d(1024, 1024, kernel_size=(1,), stride=(1,))
        )
        (activation): ReLU()
        (norm): BatchNorm1d(
          (norm): BatchNorm1d(1024, eps=1e-05, momentum=0.1, affine=True, track_running_stats=True)
        )
        (dropout): Dropout1d(p=0.0, inplace=False)
      )
      (se_block): SEBlock(
        (conv1): Conv1d(
          (conv): Conv1d(1024, 128, kernel_size=(1,), stride=(1,))
        )
        (relu): ReLU(inplace=True)
        (conv2): Conv1d(
          (conv): Conv1d(128, 1024, kernel_size=(1,), stride=(1,))
        )
        (sigmoid): Sigmoid()
      )
    )
    (3): SERes2NetBlock(
      (tdnn1): TDNNBlock(
        (conv): Conv1d(
          (conv): Conv1d(1024, 1024, kernel_size=(1,), stride=(1,))
        )
        (activation): ReLU()
        (norm): BatchNorm1d(
          (norm): BatchNorm1d(1024, eps=1e-05, momentum=0.1, affine=True, track_running_stats=True)
        )
        (dropout): Dropout1d(p=0.0, inplace=False)
      )
      (res2net_block): Res2NetBlock(
        (blocks): ModuleList(
          (0-6): 7 x TDNNBlock(
            (conv): Conv1d(
              (conv): Conv1d(128, 128, kernel_size=(3,), stride=(1,), dilation=(4,))
            )
            (activation): ReLU()
            (norm): BatchNorm1d(
              (norm): BatchNorm1d(128, eps=1e-05, momentum=0.1, affine=True, track_running_stats=True)
            )
            (dropout): Dropout1d(p=0.0, inplace=False)
          )
        )
      )
      (tdnn2): TDNNBlock(
        (conv): Conv1d(
          (conv): Conv1d(1024, 1024, kernel_size=(1,), stride=(1,))
        )
        (activation): ReLU()
        (norm): BatchNorm1d(
          (norm): BatchNorm1d(1024, eps=1e-05, momentum=0.1, affine=True, track_running_stats=True)
        )
        (dropout): Dropout1d(p=0.0, inplace=False)
      )
      (se_block): SEBlock(
        (conv1): Conv1d(
          (conv): Conv1d(1024, 128, kernel_size=(1,), stride=(1,))
        )
        (relu): ReLU(inplace=True)
        (conv2): Conv1d(
          (conv): Conv1d(128, 1024, kernel_size=(1,), stride=(1,))
        )
        (sigmoid): Sigmoid()
      )
    )
  )
  (quantizer): ResidualVectorQuantize(
    (quantizers): ModuleList(
      (0): VectorQuantize(
        (in_proj): ParametrizedConv1d(
          1024, 64, kernel_size=(1,), stride=(1,)
          (parametrizations): ModuleDict(
            (weight): ParametrizationList(
              (0): _WeightNorm()
            )
          )
        )
        (out_proj): ParametrizedConv1d(
          64, 1024, kernel_size=(1,), stride=(1,)
          (parametrizations): ModuleDict(
            (weight): ParametrizationList(
              (0): _WeightNorm()
            )
          )
        )
        (codebook): Embedding(1024, 64)
      )
    )
  )
  (mfa): TDNNBlock(
    (conv): Conv1d(
      (conv): Conv1d(1536, 1536, kernel_size=(1,), stride=(1,))
    )
    (activation): ReLU()
    (norm): BatchNorm1d(
      (norm): BatchNorm1d(1536, eps=1e-05, momentum=0.1, affine=True, track_running_stats=True)
    )
    (dropout): Dropout1d(p=0.0, inplace=False)
  )
  (asp): AttentiveStatisticsPooling(
    (tdnn): TDNNBlock(
      (conv): Conv1d(
        (conv): Conv1d(4608, 128, kernel_size=(1,), stride=(1,))
      )
      (activation): ReLU()
      (norm): BatchNorm1d(
        (norm): BatchNorm1d(128, eps=1e-05, momentum=0.1, affine=True, track_running_stats=True)
      )
      (dropout): Dropout1d(p=0.0, inplace=False)
    )
    (tanh): Tanh()
    (conv): Conv1d(
      (conv): Conv1d(128, 1536, kernel_size=(1,), stride=(1,))
    )
  )
  (asp_bn): BatchNorm1d(
    (norm): BatchNorm1d(3072, eps=1e-05, momentum=0.1, affine=True, track_running_stats=True)
  )
  (fc): Conv1d(
    (conv): Conv1d(3072, 192, kernel_size=(1,), stride=(1,))
  )
) loading from /data/anakuzne/speechbrain/recipes/UrbanSound8k/SoundClassification/ecapa_tdnn/debugq/save/embedding_model.ckpt, the transferred parameters did not have parameters for the key: quantizer.quantizers.0.in_proj.parametrizations.weight.original0
2025-04-01 15:45:01,963 - speechbrain.utils.checkpoints - WARNING - During parameter transfer to ECAPA_TDNNQ(
  (blocks): ModuleList(
    (0): TDNNBlock(
      (conv): Conv1d(
        (conv): Conv1d(80, 1024, kernel_size=(5,), stride=(1,))
      )
      (activation): ReLU()
      (norm): BatchNorm1d(
        (norm): BatchNorm1d(1024, eps=1e-05, momentum=0.1, affine=True, track_running_stats=True)
      )
      (dropout): Dropout1d(p=0.0, inplace=False)
    )
    (1): SERes2NetBlock(
      (tdnn1): TDNNBlock(
        (conv): Conv1d(
          (conv): Conv1d(1024, 1024, kernel_size=(1,), stride=(1,))
        )
        (activation): ReLU()
        (norm): BatchNorm1d(
          (norm): BatchNorm1d(1024, eps=1e-05, momentum=0.1, affine=True, track_running_stats=True)
        )
        (dropout): Dropout1d(p=0.0, inplace=False)
      )
      (res2net_block): Res2NetBlock(
        (blocks): ModuleList(
          (0-6): 7 x TDNNBlock(
            (conv): Conv1d(
              (conv): Conv1d(128, 128, kernel_size=(3,), stride=(1,), dilation=(2,))
            )
            (activation): ReLU()
            (norm): BatchNorm1d(
              (norm): BatchNorm1d(128, eps=1e-05, momentum=0.1, affine=True, track_running_stats=True)
            )
            (dropout): Dropout1d(p=0.0, inplace=False)
          )
        )
      )
      (tdnn2): TDNNBlock(
        (conv): Conv1d(
          (conv): Conv1d(1024, 1024, kernel_size=(1,), stride=(1,))
        )
        (activation): ReLU()
        (norm): BatchNorm1d(
          (norm): BatchNorm1d(1024, eps=1e-05, momentum=0.1, affine=True, track_running_stats=True)
        )
        (dropout): Dropout1d(p=0.0, inplace=False)
      )
      (se_block): SEBlock(
        (conv1): Conv1d(
          (conv): Conv1d(1024, 128, kernel_size=(1,), stride=(1,))
        )
        (relu): ReLU(inplace=True)
        (conv2): Conv1d(
          (conv): Conv1d(128, 1024, kernel_size=(1,), stride=(1,))
        )
        (sigmoid): Sigmoid()
      )
    )
    (2): SERes2NetBlock(
      (tdnn1): TDNNBlock(
        (conv): Conv1d(
          (conv): Conv1d(1024, 1024, kernel_size=(1,), stride=(1,))
        )
        (activation): ReLU()
        (norm): BatchNorm1d(
          (norm): BatchNorm1d(1024, eps=1e-05, momentum=0.1, affine=True, track_running_stats=True)
        )
        (dropout): Dropout1d(p=0.0, inplace=False)
      )
      (res2net_block): Res2NetBlock(
        (blocks): ModuleList(
          (0-6): 7 x TDNNBlock(
            (conv): Conv1d(
              (conv): Conv1d(128, 128, kernel_size=(3,), stride=(1,), dilation=(3,))
            )
            (activation): ReLU()
            (norm): BatchNorm1d(
              (norm): BatchNorm1d(128, eps=1e-05, momentum=0.1, affine=True, track_running_stats=True)
            )
            (dropout): Dropout1d(p=0.0, inplace=False)
          )
        )
      )
      (tdnn2): TDNNBlock(
        (conv): Conv1d(
          (conv): Conv1d(1024, 1024, kernel_size=(1,), stride=(1,))
        )
        (activation): ReLU()
        (norm): BatchNorm1d(
          (norm): BatchNorm1d(1024, eps=1e-05, momentum=0.1, affine=True, track_running_stats=True)
        )
        (dropout): Dropout1d(p=0.0, inplace=False)
      )
      (se_block): SEBlock(
        (conv1): Conv1d(
          (conv): Conv1d(1024, 128, kernel_size=(1,), stride=(1,))
        )
        (relu): ReLU(inplace=True)
        (conv2): Conv1d(
          (conv): Conv1d(128, 1024, kernel_size=(1,), stride=(1,))
        )
        (sigmoid): Sigmoid()
      )
    )
    (3): SERes2NetBlock(
      (tdnn1): TDNNBlock(
        (conv): Conv1d(
          (conv): Conv1d(1024, 1024, kernel_size=(1,), stride=(1,))
        )
        (activation): ReLU()
        (norm): BatchNorm1d(
          (norm): BatchNorm1d(1024, eps=1e-05, momentum=0.1, affine=True, track_running_stats=True)
        )
        (dropout): Dropout1d(p=0.0, inplace=False)
      )
      (res2net_block): Res2NetBlock(
        (blocks): ModuleList(
          (0-6): 7 x TDNNBlock(
            (conv): Conv1d(
              (conv): Conv1d(128, 128, kernel_size=(3,), stride=(1,), dilation=(4,))
            )
            (activation): ReLU()
            (norm): BatchNorm1d(
              (norm): BatchNorm1d(128, eps=1e-05, momentum=0.1, affine=True, track_running_stats=True)
            )
            (dropout): Dropout1d(p=0.0, inplace=False)
          )
        )
      )
      (tdnn2): TDNNBlock(
        (conv): Conv1d(
          (conv): Conv1d(1024, 1024, kernel_size=(1,), stride=(1,))
        )
        (activation): ReLU()
        (norm): BatchNorm1d(
          (norm): BatchNorm1d(1024, eps=1e-05, momentum=0.1, affine=True, track_running_stats=True)
        )
        (dropout): Dropout1d(p=0.0, inplace=False)
      )
      (se_block): SEBlock(
        (conv1): Conv1d(
          (conv): Conv1d(1024, 128, kernel_size=(1,), stride=(1,))
        )
        (relu): ReLU(inplace=True)
        (conv2): Conv1d(
          (conv): Conv1d(128, 1024, kernel_size=(1,), stride=(1,))
        )
        (sigmoid): Sigmoid()
      )
    )
  )
  (quantizer): ResidualVectorQuantize(
    (quantizers): ModuleList(
      (0): VectorQuantize(
        (in_proj): ParametrizedConv1d(
          1024, 64, kernel_size=(1,), stride=(1,)
          (parametrizations): ModuleDict(
            (weight): ParametrizationList(
              (0): _WeightNorm()
            )
          )
        )
        (out_proj): ParametrizedConv1d(
          64, 1024, kernel_size=(1,), stride=(1,)
          (parametrizations): ModuleDict(
            (weight): ParametrizationList(
              (0): _WeightNorm()
            )
          )
        )
        (codebook): Embedding(1024, 64)
      )
    )
  )
  (mfa): TDNNBlock(
    (conv): Conv1d(
      (conv): Conv1d(1536, 1536, kernel_size=(1,), stride=(1,))
    )
    (activation): ReLU()
    (norm): BatchNorm1d(
      (norm): BatchNorm1d(1536, eps=1e-05, momentum=0.1, affine=True, track_running_stats=True)
    )
    (dropout): Dropout1d(p=0.0, inplace=False)
  )
  (asp): AttentiveStatisticsPooling(
    (tdnn): TDNNBlock(
      (conv): Conv1d(
        (conv): Conv1d(4608, 128, kernel_size=(1,), stride=(1,))
      )
      (activation): ReLU()
      (norm): BatchNorm1d(
        (norm): BatchNorm1d(128, eps=1e-05, momentum=0.1, affine=True, track_running_stats=True)
      )
      (dropout): Dropout1d(p=0.0, inplace=False)
    )
    (tanh): Tanh()
    (conv): Conv1d(
      (conv): Conv1d(128, 1536, kernel_size=(1,), stride=(1,))
    )
  )
  (asp_bn): BatchNorm1d(
    (norm): BatchNorm1d(3072, eps=1e-05, momentum=0.1, affine=True, track_running_stats=True)
  )
  (fc): Conv1d(
    (conv): Conv1d(3072, 192, kernel_size=(1,), stride=(1,))
  )
) loading from /data/anakuzne/speechbrain/recipes/UrbanSound8k/SoundClassification/ecapa_tdnn/debugq/save/embedding_model.ckpt, the transferred parameters did not have parameters for the key: quantizer.quantizers.0.in_proj.parametrizations.weight.original1
2025-04-01 15:45:01,964 - speechbrain.utils.checkpoints - WARNING - During parameter transfer to ECAPA_TDNNQ(
  (blocks): ModuleList(
    (0): TDNNBlock(
      (conv): Conv1d(
        (conv): Conv1d(80, 1024, kernel_size=(5,), stride=(1,))
      )
      (activation): ReLU()
      (norm): BatchNorm1d(
        (norm): BatchNorm1d(1024, eps=1e-05, momentum=0.1, affine=True, track_running_stats=True)
      )
      (dropout): Dropout1d(p=0.0, inplace=False)
    )
    (1): SERes2NetBlock(
      (tdnn1): TDNNBlock(
        (conv): Conv1d(
          (conv): Conv1d(1024, 1024, kernel_size=(1,), stride=(1,))
        )
        (activation): ReLU()
        (norm): BatchNorm1d(
          (norm): BatchNorm1d(1024, eps=1e-05, momentum=0.1, affine=True, track_running_stats=True)
        )
        (dropout): Dropout1d(p=0.0, inplace=False)
      )
      (res2net_block): Res2NetBlock(
        (blocks): ModuleList(
          (0-6): 7 x TDNNBlock(
            (conv): Conv1d(
              (conv): Conv1d(128, 128, kernel_size=(3,), stride=(1,), dilation=(2,))
            )
            (activation): ReLU()
            (norm): BatchNorm1d(
              (norm): BatchNorm1d(128, eps=1e-05, momentum=0.1, affine=True, track_running_stats=True)
            )
            (dropout): Dropout1d(p=0.0, inplace=False)
          )
        )
      )
      (tdnn2): TDNNBlock(
        (conv): Conv1d(
          (conv): Conv1d(1024, 1024, kernel_size=(1,), stride=(1,))
        )
        (activation): ReLU()
        (norm): BatchNorm1d(
          (norm): BatchNorm1d(1024, eps=1e-05, momentum=0.1, affine=True, track_running_stats=True)
        )
        (dropout): Dropout1d(p=0.0, inplace=False)
      )
      (se_block): SEBlock(
        (conv1): Conv1d(
          (conv): Conv1d(1024, 128, kernel_size=(1,), stride=(1,))
        )
        (relu): ReLU(inplace=True)
        (conv2): Conv1d(
          (conv): Conv1d(128, 1024, kernel_size=(1,), stride=(1,))
        )
        (sigmoid): Sigmoid()
      )
    )
    (2): SERes2NetBlock(
      (tdnn1): TDNNBlock(
        (conv): Conv1d(
          (conv): Conv1d(1024, 1024, kernel_size=(1,), stride=(1,))
        )
        (activation): ReLU()
        (norm): BatchNorm1d(
          (norm): BatchNorm1d(1024, eps=1e-05, momentum=0.1, affine=True, track_running_stats=True)
        )
        (dropout): Dropout1d(p=0.0, inplace=False)
      )
      (res2net_block): Res2NetBlock(
        (blocks): ModuleList(
          (0-6): 7 x TDNNBlock(
            (conv): Conv1d(
              (conv): Conv1d(128, 128, kernel_size=(3,), stride=(1,), dilation=(3,))
            )
            (activation): ReLU()
            (norm): BatchNorm1d(
              (norm): BatchNorm1d(128, eps=1e-05, momentum=0.1, affine=True, track_running_stats=True)
            )
            (dropout): Dropout1d(p=0.0, inplace=False)
          )
        )
      )
      (tdnn2): TDNNBlock(
        (conv): Conv1d(
          (conv): Conv1d(1024, 1024, kernel_size=(1,), stride=(1,))
        )
        (activation): ReLU()
        (norm): BatchNorm1d(
          (norm): BatchNorm1d(1024, eps=1e-05, momentum=0.1, affine=True, track_running_stats=True)
        )
        (dropout): Dropout1d(p=0.0, inplace=False)
      )
      (se_block): SEBlock(
        (conv1): Conv1d(
          (conv): Conv1d(1024, 128, kernel_size=(1,), stride=(1,))
        )
        (relu): ReLU(inplace=True)
        (conv2): Conv1d(
          (conv): Conv1d(128, 1024, kernel_size=(1,), stride=(1,))
        )
        (sigmoid): Sigmoid()
      )
    )
    (3): SERes2NetBlock(
      (tdnn1): TDNNBlock(
        (conv): Conv1d(
          (conv): Conv1d(1024, 1024, kernel_size=(1,), stride=(1,))
        )
        (activation): ReLU()
        (norm): BatchNorm1d(
          (norm): BatchNorm1d(1024, eps=1e-05, momentum=0.1, affine=True, track_running_stats=True)
        )
        (dropout): Dropout1d(p=0.0, inplace=False)
      )
      (res2net_block): Res2NetBlock(
        (blocks): ModuleList(
          (0-6): 7 x TDNNBlock(
            (conv): Conv1d(
              (conv): Conv1d(128, 128, kernel_size=(3,), stride=(1,), dilation=(4,))
            )
            (activation): ReLU()
            (norm): BatchNorm1d(
              (norm): BatchNorm1d(128, eps=1e-05, momentum=0.1, affine=True, track_running_stats=True)
            )
            (dropout): Dropout1d(p=0.0, inplace=False)
          )
        )
      )
      (tdnn2): TDNNBlock(
        (conv): Conv1d(
          (conv): Conv1d(1024, 1024, kernel_size=(1,), stride=(1,))
        )
        (activation): ReLU()
        (norm): BatchNorm1d(
          (norm): BatchNorm1d(1024, eps=1e-05, momentum=0.1, affine=True, track_running_stats=True)
        )
        (dropout): Dropout1d(p=0.0, inplace=False)
      )
      (se_block): SEBlock(
        (conv1): Conv1d(
          (conv): Conv1d(1024, 128, kernel_size=(1,), stride=(1,))
        )
        (relu): ReLU(inplace=True)
        (conv2): Conv1d(
          (conv): Conv1d(128, 1024, kernel_size=(1,), stride=(1,))
        )
        (sigmoid): Sigmoid()
      )
    )
  )
  (quantizer): ResidualVectorQuantize(
    (quantizers): ModuleList(
      (0): VectorQuantize(
        (in_proj): ParametrizedConv1d(
          1024, 64, kernel_size=(1,), stride=(1,)
          (parametrizations): ModuleDict(
            (weight): ParametrizationList(
              (0): _WeightNorm()
            )
          )
        )
        (out_proj): ParametrizedConv1d(
          64, 1024, kernel_size=(1,), stride=(1,)
          (parametrizations): ModuleDict(
            (weight): ParametrizationList(
              (0): _WeightNorm()
            )
          )
        )
        (codebook): Embedding(1024, 64)
      )
    )
  )
  (mfa): TDNNBlock(
    (conv): Conv1d(
      (conv): Conv1d(1536, 1536, kernel_size=(1,), stride=(1,))
    )
    (activation): ReLU()
    (norm): BatchNorm1d(
      (norm): BatchNorm1d(1536, eps=1e-05, momentum=0.1, affine=True, track_running_stats=True)
    )
    (dropout): Dropout1d(p=0.0, inplace=False)
  )
  (asp): AttentiveStatisticsPooling(
    (tdnn): TDNNBlock(
      (conv): Conv1d(
        (conv): Conv1d(4608, 128, kernel_size=(1,), stride=(1,))
      )
      (activation): ReLU()
      (norm): BatchNorm1d(
        (norm): BatchNorm1d(128, eps=1e-05, momentum=0.1, affine=True, track_running_stats=True)
      )
      (dropout): Dropout1d(p=0.0, inplace=False)
    )
    (tanh): Tanh()
    (conv): Conv1d(
      (conv): Conv1d(128, 1536, kernel_size=(1,), stride=(1,))
    )
  )
  (asp_bn): BatchNorm1d(
    (norm): BatchNorm1d(3072, eps=1e-05, momentum=0.1, affine=True, track_running_stats=True)
  )
  (fc): Conv1d(
    (conv): Conv1d(3072, 192, kernel_size=(1,), stride=(1,))
  )
) loading from /data/anakuzne/speechbrain/recipes/UrbanSound8k/SoundClassification/ecapa_tdnn/debugq/save/embedding_model.ckpt, the transferred parameters did not have parameters for the key: quantizer.quantizers.0.out_proj.bias
2025-04-01 15:45:01,966 - speechbrain.utils.checkpoints - WARNING - During parameter transfer to ECAPA_TDNNQ(
  (blocks): ModuleList(
    (0): TDNNBlock(
      (conv): Conv1d(
        (conv): Conv1d(80, 1024, kernel_size=(5,), stride=(1,))
      )
      (activation): ReLU()
      (norm): BatchNorm1d(
        (norm): BatchNorm1d(1024, eps=1e-05, momentum=0.1, affine=True, track_running_stats=True)
      )
      (dropout): Dropout1d(p=0.0, inplace=False)
    )
    (1): SERes2NetBlock(
      (tdnn1): TDNNBlock(
        (conv): Conv1d(
          (conv): Conv1d(1024, 1024, kernel_size=(1,), stride=(1,))
        )
        (activation): ReLU()
        (norm): BatchNorm1d(
          (norm): BatchNorm1d(1024, eps=1e-05, momentum=0.1, affine=True, track_running_stats=True)
        )
        (dropout): Dropout1d(p=0.0, inplace=False)
      )
      (res2net_block): Res2NetBlock(
        (blocks): ModuleList(
          (0-6): 7 x TDNNBlock(
            (conv): Conv1d(
              (conv): Conv1d(128, 128, kernel_size=(3,), stride=(1,), dilation=(2,))
            )
            (activation): ReLU()
            (norm): BatchNorm1d(
              (norm): BatchNorm1d(128, eps=1e-05, momentum=0.1, affine=True, track_running_stats=True)
            )
            (dropout): Dropout1d(p=0.0, inplace=False)
          )
        )
      )
      (tdnn2): TDNNBlock(
        (conv): Conv1d(
          (conv): Conv1d(1024, 1024, kernel_size=(1,), stride=(1,))
        )
        (activation): ReLU()
        (norm): BatchNorm1d(
          (norm): BatchNorm1d(1024, eps=1e-05, momentum=0.1, affine=True, track_running_stats=True)
        )
        (dropout): Dropout1d(p=0.0, inplace=False)
      )
      (se_block): SEBlock(
        (conv1): Conv1d(
          (conv): Conv1d(1024, 128, kernel_size=(1,), stride=(1,))
        )
        (relu): ReLU(inplace=True)
        (conv2): Conv1d(
          (conv): Conv1d(128, 1024, kernel_size=(1,), stride=(1,))
        )
        (sigmoid): Sigmoid()
      )
    )
    (2): SERes2NetBlock(
      (tdnn1): TDNNBlock(
        (conv): Conv1d(
          (conv): Conv1d(1024, 1024, kernel_size=(1,), stride=(1,))
        )
        (activation): ReLU()
        (norm): BatchNorm1d(
          (norm): BatchNorm1d(1024, eps=1e-05, momentum=0.1, affine=True, track_running_stats=True)
        )
        (dropout): Dropout1d(p=0.0, inplace=False)
      )
      (res2net_block): Res2NetBlock(
        (blocks): ModuleList(
          (0-6): 7 x TDNNBlock(
            (conv): Conv1d(
              (conv): Conv1d(128, 128, kernel_size=(3,), stride=(1,), dilation=(3,))
            )
            (activation): ReLU()
            (norm): BatchNorm1d(
              (norm): BatchNorm1d(128, eps=1e-05, momentum=0.1, affine=True, track_running_stats=True)
            )
            (dropout): Dropout1d(p=0.0, inplace=False)
          )
        )
      )
      (tdnn2): TDNNBlock(
        (conv): Conv1d(
          (conv): Conv1d(1024, 1024, kernel_size=(1,), stride=(1,))
        )
        (activation): ReLU()
        (norm): BatchNorm1d(
          (norm): BatchNorm1d(1024, eps=1e-05, momentum=0.1, affine=True, track_running_stats=True)
        )
        (dropout): Dropout1d(p=0.0, inplace=False)
      )
      (se_block): SEBlock(
        (conv1): Conv1d(
          (conv): Conv1d(1024, 128, kernel_size=(1,), stride=(1,))
        )
        (relu): ReLU(inplace=True)
        (conv2): Conv1d(
          (conv): Conv1d(128, 1024, kernel_size=(1,), stride=(1,))
        )
        (sigmoid): Sigmoid()
      )
    )
    (3): SERes2NetBlock(
      (tdnn1): TDNNBlock(
        (conv): Conv1d(
          (conv): Conv1d(1024, 1024, kernel_size=(1,), stride=(1,))
        )
        (activation): ReLU()
        (norm): BatchNorm1d(
          (norm): BatchNorm1d(1024, eps=1e-05, momentum=0.1, affine=True, track_running_stats=True)
        )
        (dropout): Dropout1d(p=0.0, inplace=False)
      )
      (res2net_block): Res2NetBlock(
        (blocks): ModuleList(
          (0-6): 7 x TDNNBlock(
            (conv): Conv1d(
              (conv): Conv1d(128, 128, kernel_size=(3,), stride=(1,), dilation=(4,))
            )
            (activation): ReLU()
            (norm): BatchNorm1d(
              (norm): BatchNorm1d(128, eps=1e-05, momentum=0.1, affine=True, track_running_stats=True)
            )
            (dropout): Dropout1d(p=0.0, inplace=False)
          )
        )
      )
      (tdnn2): TDNNBlock(
        (conv): Conv1d(
          (conv): Conv1d(1024, 1024, kernel_size=(1,), stride=(1,))
        )
        (activation): ReLU()
        (norm): BatchNorm1d(
          (norm): BatchNorm1d(1024, eps=1e-05, momentum=0.1, affine=True, track_running_stats=True)
        )
        (dropout): Dropout1d(p=0.0, inplace=False)
      )
      (se_block): SEBlock(
        (conv1): Conv1d(
          (conv): Conv1d(1024, 128, kernel_size=(1,), stride=(1,))
        )
        (relu): ReLU(inplace=True)
        (conv2): Conv1d(
          (conv): Conv1d(128, 1024, kernel_size=(1,), stride=(1,))
        )
        (sigmoid): Sigmoid()
      )
    )
  )
  (quantizer): ResidualVectorQuantize(
    (quantizers): ModuleList(
      (0): VectorQuantize(
        (in_proj): ParametrizedConv1d(
          1024, 64, kernel_size=(1,), stride=(1,)
          (parametrizations): ModuleDict(
            (weight): ParametrizationList(
              (0): _WeightNorm()
            )
          )
        )
        (out_proj): ParametrizedConv1d(
          64, 1024, kernel_size=(1,), stride=(1,)
          (parametrizations): ModuleDict(
            (weight): ParametrizationList(
              (0): _WeightNorm()
            )
          )
        )
        (codebook): Embedding(1024, 64)
      )
    )
  )
  (mfa): TDNNBlock(
    (conv): Conv1d(
      (conv): Conv1d(1536, 1536, kernel_size=(1,), stride=(1,))
    )
    (activation): ReLU()
    (norm): BatchNorm1d(
      (norm): BatchNorm1d(1536, eps=1e-05, momentum=0.1, affine=True, track_running_stats=True)
    )
    (dropout): Dropout1d(p=0.0, inplace=False)
  )
  (asp): AttentiveStatisticsPooling(
    (tdnn): TDNNBlock(
      (conv): Conv1d(
        (conv): Conv1d(4608, 128, kernel_size=(1,), stride=(1,))
      )
      (activation): ReLU()
      (norm): BatchNorm1d(
        (norm): BatchNorm1d(128, eps=1e-05, momentum=0.1, affine=True, track_running_stats=True)
      )
      (dropout): Dropout1d(p=0.0, inplace=False)
    )
    (tanh): Tanh()
    (conv): Conv1d(
      (conv): Conv1d(128, 1536, kernel_size=(1,), stride=(1,))
    )
  )
  (asp_bn): BatchNorm1d(
    (norm): BatchNorm1d(3072, eps=1e-05, momentum=0.1, affine=True, track_running_stats=True)
  )
  (fc): Conv1d(
    (conv): Conv1d(3072, 192, kernel_size=(1,), stride=(1,))
  )
) loading from /data/anakuzne/speechbrain/recipes/UrbanSound8k/SoundClassification/ecapa_tdnn/debugq/save/embedding_model.ckpt, the transferred parameters did not have parameters for the key: quantizer.quantizers.0.out_proj.parametrizations.weight.original0
2025-04-01 15:45:01,967 - speechbrain.utils.checkpoints - WARNING - During parameter transfer to ECAPA_TDNNQ(
  (blocks): ModuleList(
    (0): TDNNBlock(
      (conv): Conv1d(
        (conv): Conv1d(80, 1024, kernel_size=(5,), stride=(1,))
      )
      (activation): ReLU()
      (norm): BatchNorm1d(
        (norm): BatchNorm1d(1024, eps=1e-05, momentum=0.1, affine=True, track_running_stats=True)
      )
      (dropout): Dropout1d(p=0.0, inplace=False)
    )
    (1): SERes2NetBlock(
      (tdnn1): TDNNBlock(
        (conv): Conv1d(
          (conv): Conv1d(1024, 1024, kernel_size=(1,), stride=(1,))
        )
        (activation): ReLU()
        (norm): BatchNorm1d(
          (norm): BatchNorm1d(1024, eps=1e-05, momentum=0.1, affine=True, track_running_stats=True)
        )
        (dropout): Dropout1d(p=0.0, inplace=False)
      )
      (res2net_block): Res2NetBlock(
        (blocks): ModuleList(
          (0-6): 7 x TDNNBlock(
            (conv): Conv1d(
              (conv): Conv1d(128, 128, kernel_size=(3,), stride=(1,), dilation=(2,))
            )
            (activation): ReLU()
            (norm): BatchNorm1d(
              (norm): BatchNorm1d(128, eps=1e-05, momentum=0.1, affine=True, track_running_stats=True)
            )
            (dropout): Dropout1d(p=0.0, inplace=False)
          )
        )
      )
      (tdnn2): TDNNBlock(
        (conv): Conv1d(
          (conv): Conv1d(1024, 1024, kernel_size=(1,), stride=(1,))
        )
        (activation): ReLU()
        (norm): BatchNorm1d(
          (norm): BatchNorm1d(1024, eps=1e-05, momentum=0.1, affine=True, track_running_stats=True)
        )
        (dropout): Dropout1d(p=0.0, inplace=False)
      )
      (se_block): SEBlock(
        (conv1): Conv1d(
          (conv): Conv1d(1024, 128, kernel_size=(1,), stride=(1,))
        )
        (relu): ReLU(inplace=True)
        (conv2): Conv1d(
          (conv): Conv1d(128, 1024, kernel_size=(1,), stride=(1,))
        )
        (sigmoid): Sigmoid()
      )
    )
    (2): SERes2NetBlock(
      (tdnn1): TDNNBlock(
        (conv): Conv1d(
          (conv): Conv1d(1024, 1024, kernel_size=(1,), stride=(1,))
        )
        (activation): ReLU()
        (norm): BatchNorm1d(
          (norm): BatchNorm1d(1024, eps=1e-05, momentum=0.1, affine=True, track_running_stats=True)
        )
        (dropout): Dropout1d(p=0.0, inplace=False)
      )
      (res2net_block): Res2NetBlock(
        (blocks): ModuleList(
          (0-6): 7 x TDNNBlock(
            (conv): Conv1d(
              (conv): Conv1d(128, 128, kernel_size=(3,), stride=(1,), dilation=(3,))
            )
            (activation): ReLU()
            (norm): BatchNorm1d(
              (norm): BatchNorm1d(128, eps=1e-05, momentum=0.1, affine=True, track_running_stats=True)
            )
            (dropout): Dropout1d(p=0.0, inplace=False)
          )
        )
      )
      (tdnn2): TDNNBlock(
        (conv): Conv1d(
          (conv): Conv1d(1024, 1024, kernel_size=(1,), stride=(1,))
        )
        (activation): ReLU()
        (norm): BatchNorm1d(
          (norm): BatchNorm1d(1024, eps=1e-05, momentum=0.1, affine=True, track_running_stats=True)
        )
        (dropout): Dropout1d(p=0.0, inplace=False)
      )
      (se_block): SEBlock(
        (conv1): Conv1d(
          (conv): Conv1d(1024, 128, kernel_size=(1,), stride=(1,))
        )
        (relu): ReLU(inplace=True)
        (conv2): Conv1d(
          (conv): Conv1d(128, 1024, kernel_size=(1,), stride=(1,))
        )
        (sigmoid): Sigmoid()
      )
    )
    (3): SERes2NetBlock(
      (tdnn1): TDNNBlock(
        (conv): Conv1d(
          (conv): Conv1d(1024, 1024, kernel_size=(1,), stride=(1,))
        )
        (activation): ReLU()
        (norm): BatchNorm1d(
          (norm): BatchNorm1d(1024, eps=1e-05, momentum=0.1, affine=True, track_running_stats=True)
        )
        (dropout): Dropout1d(p=0.0, inplace=False)
      )
      (res2net_block): Res2NetBlock(
        (blocks): ModuleList(
          (0-6): 7 x TDNNBlock(
            (conv): Conv1d(
              (conv): Conv1d(128, 128, kernel_size=(3,), stride=(1,), dilation=(4,))
            )
            (activation): ReLU()
            (norm): BatchNorm1d(
              (norm): BatchNorm1d(128, eps=1e-05, momentum=0.1, affine=True, track_running_stats=True)
            )
            (dropout): Dropout1d(p=0.0, inplace=False)
          )
        )
      )
      (tdnn2): TDNNBlock(
        (conv): Conv1d(
          (conv): Conv1d(1024, 1024, kernel_size=(1,), stride=(1,))
        )
        (activation): ReLU()
        (norm): BatchNorm1d(
          (norm): BatchNorm1d(1024, eps=1e-05, momentum=0.1, affine=True, track_running_stats=True)
        )
        (dropout): Dropout1d(p=0.0, inplace=False)
      )
      (se_block): SEBlock(
        (conv1): Conv1d(
          (conv): Conv1d(1024, 128, kernel_size=(1,), stride=(1,))
        )
        (relu): ReLU(inplace=True)
        (conv2): Conv1d(
          (conv): Conv1d(128, 1024, kernel_size=(1,), stride=(1,))
        )
        (sigmoid): Sigmoid()
      )
    )
  )
  (quantizer): ResidualVectorQuantize(
    (quantizers): ModuleList(
      (0): VectorQuantize(
        (in_proj): ParametrizedConv1d(
          1024, 64, kernel_size=(1,), stride=(1,)
          (parametrizations): ModuleDict(
            (weight): ParametrizationList(
              (0): _WeightNorm()
            )
          )
        )
        (out_proj): ParametrizedConv1d(
          64, 1024, kernel_size=(1,), stride=(1,)
          (parametrizations): ModuleDict(
            (weight): ParametrizationList(
              (0): _WeightNorm()
            )
          )
        )
        (codebook): Embedding(1024, 64)
      )
    )
  )
  (mfa): TDNNBlock(
    (conv): Conv1d(
      (conv): Conv1d(1536, 1536, kernel_size=(1,), stride=(1,))
    )
    (activation): ReLU()
    (norm): BatchNorm1d(
      (norm): BatchNorm1d(1536, eps=1e-05, momentum=0.1, affine=True, track_running_stats=True)
    )
    (dropout): Dropout1d(p=0.0, inplace=False)
  )
  (asp): AttentiveStatisticsPooling(
    (tdnn): TDNNBlock(
      (conv): Conv1d(
        (conv): Conv1d(4608, 128, kernel_size=(1,), stride=(1,))
      )
      (activation): ReLU()
      (norm): BatchNorm1d(
        (norm): BatchNorm1d(128, eps=1e-05, momentum=0.1, affine=True, track_running_stats=True)
      )
      (dropout): Dropout1d(p=0.0, inplace=False)
    )
    (tanh): Tanh()
    (conv): Conv1d(
      (conv): Conv1d(128, 1536, kernel_size=(1,), stride=(1,))
    )
  )
  (asp_bn): BatchNorm1d(
    (norm): BatchNorm1d(3072, eps=1e-05, momentum=0.1, affine=True, track_running_stats=True)
  )
  (fc): Conv1d(
    (conv): Conv1d(3072, 192, kernel_size=(1,), stride=(1,))
  )
) loading from /data/anakuzne/speechbrain/recipes/UrbanSound8k/SoundClassification/ecapa_tdnn/debugq/save/embedding_model.ckpt, the transferred parameters did not have parameters for the key: quantizer.quantizers.0.out_proj.parametrizations.weight.original1
2025-04-01 15:45:01,968 - speechbrain.utils.checkpoints - WARNING - During parameter transfer to ECAPA_TDNNQ(
  (blocks): ModuleList(
    (0): TDNNBlock(
      (conv): Conv1d(
        (conv): Conv1d(80, 1024, kernel_size=(5,), stride=(1,))
      )
      (activation): ReLU()
      (norm): BatchNorm1d(
        (norm): BatchNorm1d(1024, eps=1e-05, momentum=0.1, affine=True, track_running_stats=True)
      )
      (dropout): Dropout1d(p=0.0, inplace=False)
    )
    (1): SERes2NetBlock(
      (tdnn1): TDNNBlock(
        (conv): Conv1d(
          (conv): Conv1d(1024, 1024, kernel_size=(1,), stride=(1,))
        )
        (activation): ReLU()
        (norm): BatchNorm1d(
          (norm): BatchNorm1d(1024, eps=1e-05, momentum=0.1, affine=True, track_running_stats=True)
        )
        (dropout): Dropout1d(p=0.0, inplace=False)
      )
      (res2net_block): Res2NetBlock(
        (blocks): ModuleList(
          (0-6): 7 x TDNNBlock(
            (conv): Conv1d(
              (conv): Conv1d(128, 128, kernel_size=(3,), stride=(1,), dilation=(2,))
            )
            (activation): ReLU()
            (norm): BatchNorm1d(
              (norm): BatchNorm1d(128, eps=1e-05, momentum=0.1, affine=True, track_running_stats=True)
            )
            (dropout): Dropout1d(p=0.0, inplace=False)
          )
        )
      )
      (tdnn2): TDNNBlock(
        (conv): Conv1d(
          (conv): Conv1d(1024, 1024, kernel_size=(1,), stride=(1,))
        )
        (activation): ReLU()
        (norm): BatchNorm1d(
          (norm): BatchNorm1d(1024, eps=1e-05, momentum=0.1, affine=True, track_running_stats=True)
        )
        (dropout): Dropout1d(p=0.0, inplace=False)
      )
      (se_block): SEBlock(
        (conv1): Conv1d(
          (conv): Conv1d(1024, 128, kernel_size=(1,), stride=(1,))
        )
        (relu): ReLU(inplace=True)
        (conv2): Conv1d(
          (conv): Conv1d(128, 1024, kernel_size=(1,), stride=(1,))
        )
        (sigmoid): Sigmoid()
      )
    )
    (2): SERes2NetBlock(
      (tdnn1): TDNNBlock(
        (conv): Conv1d(
          (conv): Conv1d(1024, 1024, kernel_size=(1,), stride=(1,))
        )
        (activation): ReLU()
        (norm): BatchNorm1d(
          (norm): BatchNorm1d(1024, eps=1e-05, momentum=0.1, affine=True, track_running_stats=True)
        )
        (dropout): Dropout1d(p=0.0, inplace=False)
      )
      (res2net_block): Res2NetBlock(
        (blocks): ModuleList(
          (0-6): 7 x TDNNBlock(
            (conv): Conv1d(
              (conv): Conv1d(128, 128, kernel_size=(3,), stride=(1,), dilation=(3,))
            )
            (activation): ReLU()
            (norm): BatchNorm1d(
              (norm): BatchNorm1d(128, eps=1e-05, momentum=0.1, affine=True, track_running_stats=True)
            )
            (dropout): Dropout1d(p=0.0, inplace=False)
          )
        )
      )
      (tdnn2): TDNNBlock(
        (conv): Conv1d(
          (conv): Conv1d(1024, 1024, kernel_size=(1,), stride=(1,))
        )
        (activation): ReLU()
        (norm): BatchNorm1d(
          (norm): BatchNorm1d(1024, eps=1e-05, momentum=0.1, affine=True, track_running_stats=True)
        )
        (dropout): Dropout1d(p=0.0, inplace=False)
      )
      (se_block): SEBlock(
        (conv1): Conv1d(
          (conv): Conv1d(1024, 128, kernel_size=(1,), stride=(1,))
        )
        (relu): ReLU(inplace=True)
        (conv2): Conv1d(
          (conv): Conv1d(128, 1024, kernel_size=(1,), stride=(1,))
        )
        (sigmoid): Sigmoid()
      )
    )
    (3): SERes2NetBlock(
      (tdnn1): TDNNBlock(
        (conv): Conv1d(
          (conv): Conv1d(1024, 1024, kernel_size=(1,), stride=(1,))
        )
        (activation): ReLU()
        (norm): BatchNorm1d(
          (norm): BatchNorm1d(1024, eps=1e-05, momentum=0.1, affine=True, track_running_stats=True)
        )
        (dropout): Dropout1d(p=0.0, inplace=False)
      )
      (res2net_block): Res2NetBlock(
        (blocks): ModuleList(
          (0-6): 7 x TDNNBlock(
            (conv): Conv1d(
              (conv): Conv1d(128, 128, kernel_size=(3,), stride=(1,), dilation=(4,))
            )
            (activation): ReLU()
            (norm): BatchNorm1d(
              (norm): BatchNorm1d(128, eps=1e-05, momentum=0.1, affine=True, track_running_stats=True)
            )
            (dropout): Dropout1d(p=0.0, inplace=False)
          )
        )
      )
      (tdnn2): TDNNBlock(
        (conv): Conv1d(
          (conv): Conv1d(1024, 1024, kernel_size=(1,), stride=(1,))
        )
        (activation): ReLU()
        (norm): BatchNorm1d(
          (norm): BatchNorm1d(1024, eps=1e-05, momentum=0.1, affine=True, track_running_stats=True)
        )
        (dropout): Dropout1d(p=0.0, inplace=False)
      )
      (se_block): SEBlock(
        (conv1): Conv1d(
          (conv): Conv1d(1024, 128, kernel_size=(1,), stride=(1,))
        )
        (relu): ReLU(inplace=True)
        (conv2): Conv1d(
          (conv): Conv1d(128, 1024, kernel_size=(1,), stride=(1,))
        )
        (sigmoid): Sigmoid()
      )
    )
  )
  (quantizer): ResidualVectorQuantize(
    (quantizers): ModuleList(
      (0): VectorQuantize(
        (in_proj): ParametrizedConv1d(
          1024, 64, kernel_size=(1,), stride=(1,)
          (parametrizations): ModuleDict(
            (weight): ParametrizationList(
              (0): _WeightNorm()
            )
          )
        )
        (out_proj): ParametrizedConv1d(
          64, 1024, kernel_size=(1,), stride=(1,)
          (parametrizations): ModuleDict(
            (weight): ParametrizationList(
              (0): _WeightNorm()
            )
          )
        )
        (codebook): Embedding(1024, 64)
      )
    )
  )
  (mfa): TDNNBlock(
    (conv): Conv1d(
      (conv): Conv1d(1536, 1536, kernel_size=(1,), stride=(1,))
    )
    (activation): ReLU()
    (norm): BatchNorm1d(
      (norm): BatchNorm1d(1536, eps=1e-05, momentum=0.1, affine=True, track_running_stats=True)
    )
    (dropout): Dropout1d(p=0.0, inplace=False)
  )
  (asp): AttentiveStatisticsPooling(
    (tdnn): TDNNBlock(
      (conv): Conv1d(
        (conv): Conv1d(4608, 128, kernel_size=(1,), stride=(1,))
      )
      (activation): ReLU()
      (norm): BatchNorm1d(
        (norm): BatchNorm1d(128, eps=1e-05, momentum=0.1, affine=True, track_running_stats=True)
      )
      (dropout): Dropout1d(p=0.0, inplace=False)
    )
    (tanh): Tanh()
    (conv): Conv1d(
      (conv): Conv1d(128, 1536, kernel_size=(1,), stride=(1,))
    )
  )
  (asp_bn): BatchNorm1d(
    (norm): BatchNorm1d(3072, eps=1e-05, momentum=0.1, affine=True, track_running_stats=True)
  )
  (fc): Conv1d(
    (conv): Conv1d(3072, 192, kernel_size=(1,), stride=(1,))
  )
) loading from /data/anakuzne/speechbrain/recipes/UrbanSound8k/SoundClassification/ecapa_tdnn/debugq/save/embedding_model.ckpt, the transferred parameters did not have parameters for the key: quantizer.quantizers.0.codebook.weight
2025-04-01 15:45:01,968 - speechbrain.core - INFO - Info: ckpt_interval_minutes arg from hparam file is used
2025-04-01 15:45:02,258 - speechbrain.core - INFO - Gradscaler enabled: False. Using precision: fp32.
…
