…
2025-01-23 15:47:11,390 - speechbrain.utils.checkpoints - INFO - Due to replacement compatibility rule '.mutihead_attn'->'.multihead_attn', renamed `state_dict['1.decoder.layers.5.mutihead_attn.att.out_proj.weight']`->`state_dict['1.decoder.layers.5.multihead_attn.att.out_proj.weight']`
2025-01-23 15:47:11,390 - speechbrain.utils.checkpoints - INFO - Due to replacement compatibility rule '.mutihead_attn'->'.multihead_attn', renamed `state_dict['1.decoder.layers.5.mutihead_attn.att.out_proj.bias']`->`state_dict['1.decoder.layers.5.multihead_attn.att.out_proj.bias']`
2025-01-23 15:47:13,130 - speechbrain.utils.checkpoints - WARNING - During parameter transfer to ModuleList(
  (0): ConvolutionFrontEnd(
    (convblock_0): ConvBlock(
      (convs): Sequential(
        (conv_0): Conv2d(
          (conv): Conv2d(1, 64, kernel_size=(3, 3), stride=(2, 2))
        )
        (norm_0): LayerNorm(
          (norm): LayerNorm((40, 64), eps=1e-05, elementwise_affine=True)
        )
        (act_0): LeakyReLU(negative_slope=0.01)
        (dropout_0): Dropout(p=0.1, inplace=False)
      )
    )
    (convblock_1): ConvBlock(
      (convs): Sequential(
        (conv_0): Conv2d(
          (conv): Conv2d(64, 32, kernel_size=(3, 3), stride=(2, 2))
        )
        (norm_0): LayerNorm(
          (norm): LayerNorm((20, 32), eps=1e-05, elementwise_affine=True)
        )
        (act_0): LeakyReLU(negative_slope=0.01)
        (dropout_0): Dropout(p=0.1, inplace=False)
      )
    )
  )
  (1): TransformerASR(
    (positional_encoding): RelPosEncXL()
    (positional_encoding_decoder): PositionalEncoding()
    (encoder): ConformerEncoder(
      (layers): ModuleList(
        (0-11): 12 x ConformerEncoderLayer(
          (mha_layer): RelPosMHAXL(
            (dropout_att): Dropout(p=0.1, inplace=False)
            (out_proj): Linear(in_features=512, out_features=512, bias=True)
            (linear_pos): Linear(in_features=512, out_features=512, bias=False)
          )
          (convolution_module): ConvolutionModule(
            (layer_norm): LayerNorm((512,), eps=1e-05, elementwise_affine=True)
            (bottleneck): Sequential(
              (0): Conv1d(512, 1024, kernel_size=(1,), stride=(1,))
              (1): GLU(dim=1)
            )
            (conv): Conv1d(512, 512, kernel_size=(31,), stride=(1,), padding=(15,), groups=512)
            (after_conv): Sequential(
              (0): LayerNorm((512,), eps=1e-05, elementwise_affine=True)
              (1): Swish(
                (silu): SiLU()
              )
              (2): Linear(in_features=512, out_features=512, bias=True)
              (3): Dropout(p=0.1, inplace=False)
            )
          )
          (ffn_module1): Sequential(
            (0): LayerNorm((512,), eps=1e-05, elementwise_affine=True)
            (1): PositionalwiseFeedForward(
              (ffn): Sequential(
                (0): Linear(in_features=512, out_features=2048, bias=True)
                (1): Swish(
                  (silu): SiLU()
                )
                (2): Dropout(p=0.1, inplace=False)
                (3): Linear(in_features=2048, out_features=512, bias=True)
              )
            )
            (2): Dropout(p=0.1, inplace=False)
          )
          (ffn_module2): Sequential(
            (0): LayerNorm((512,), eps=1e-05, elementwise_affine=True)
            (1): PositionalwiseFeedForward(
              (ffn): Sequential(
                (0): Linear(in_features=512, out_features=2048, bias=True)
                (1): Swish(
                  (silu): SiLU()
                )
                (2): Dropout(p=0.1, inplace=False)
                (3): Linear(in_features=2048, out_features=512, bias=True)
              )
            )
            (2): Dropout(p=0.1, inplace=False)
          )
          (norm1): LayerNorm(
            (norm): LayerNorm((512,), eps=1e-05, elementwise_affine=True)
          )
          (norm2): LayerNorm(
            (norm): LayerNorm((512,), eps=1e-05, elementwise_affine=True)
          )
          (drop): Dropout(p=0.1, inplace=False)
        )
      )
      (norm): LayerNorm(
        (norm): LayerNorm((512,), eps=1e-06, elementwise_affine=True)
      )
    )
    (decoder): TransformerDecoder(
      (layers): ModuleList(
        (0-5): 6 x TransformerDecoderLayer(
          (self_attn): MultiheadAttention(
            (att): MultiheadAttention(
              (out_proj): NonDynamicallyQuantizableLinear(in_features=512, out_features=512, bias=True)
            )
          )
          (multihead_attn): MultiheadAttention(
            (att): MultiheadAttention(
              (out_proj): NonDynamicallyQuantizableLinear(in_features=512, out_features=512, bias=True)
            )
          )
          (pos_ffn): PositionalwiseFeedForward(
            (ffn): Sequential(
              (0): Linear(in_features=512, out_features=2048, bias=True)
              (1): GELU(approximate='none')
              (2): Dropout(p=0.1, inplace=False)
              (3): Linear(in_features=2048, out_features=512, bias=True)
            )
          )
          (norm1): LayerNorm(
            (norm): LayerNorm((512,), eps=1e-06, elementwise_affine=True)
          )
          (norm2): LayerNorm(
            (norm): LayerNorm((512,), eps=1e-06, elementwise_affine=True)
          )
          (norm3): LayerNorm(
            (norm): LayerNorm((512,), eps=1e-06, elementwise_affine=True)
          )
          (dropout1): Dropout(p=0.1, inplace=False)
          (dropout2): Dropout(p=0.1, inplace=False)
          (dropout3): Dropout(p=0.1, inplace=False)
        )
      )
      (norm): LayerNorm(
        (norm): LayerNorm((512,), eps=1e-06, elementwise_affine=True)
      )
    )
    (custom_src_module): ModuleList(
      (layers): ModuleList(
        (0): Linear(
          (w): Linear(in_features=640, out_features=512, bias=True)
        )
        (1): Dropout(p=0.1, inplace=False)
      )
    )
    (custom_tgt_module): ModuleList(
      (layers): ModuleList(
        (0): NormalizedEmbedding(
          (emb): Embedding(
            (Embedding): Embedding(5000, 512)
          )
        )
      )
    )
    (quantizer): ResidualVectorQuantize(
      (quantizers): ModuleList(
        (0): VectorQuantize(
          (in_proj): ParametrizedConv1d(
            512, 8, kernel_size=(1,), stride=(1,)
            (parametrizations): ModuleDict(
              (weight): ParametrizationList(
                (0): _WeightNorm()
              )
            )
          )
          (out_proj): ParametrizedConv1d(
            8, 512, kernel_size=(1,), stride=(1,)
            (parametrizations): ModuleDict(
              (weight): ParametrizationList(
                (0): _WeightNorm()
              )
            )
          )
          (codebook): Embedding(8192, 8)
        )
      )
    )
  )
  (2-3): 2 x Linear(
    (w): Linear(in_features=512, out_features=5000, bias=True)
  )
) loading from /data/anakuzne/speechbrain/recipes/LibriSpeech/ASR/transformer/hopt/run1/3407/save/model.ckpt, the transferred parameters did not have parameters for the key: 1.quantizer.quantizers.0.in_proj.bias
2025-01-23 15:47:13,136 - speechbrain.utils.checkpoints - WARNING - During parameter transfer to ModuleList(
  (0): ConvolutionFrontEnd(
    (convblock_0): ConvBlock(
      (convs): Sequential(
        (conv_0): Conv2d(
          (conv): Conv2d(1, 64, kernel_size=(3, 3), stride=(2, 2))
        )
        (norm_0): LayerNorm(
          (norm): LayerNorm((40, 64), eps=1e-05, elementwise_affine=True)
        )
        (act_0): LeakyReLU(negative_slope=0.01)
        (dropout_0): Dropout(p=0.1, inplace=False)
      )
    )
    (convblock_1): ConvBlock(
      (convs): Sequential(
        (conv_0): Conv2d(
          (conv): Conv2d(64, 32, kernel_size=(3, 3), stride=(2, 2))
        )
        (norm_0): LayerNorm(
          (norm): LayerNorm((20, 32), eps=1e-05, elementwise_affine=True)
        )
        (act_0): LeakyReLU(negative_slope=0.01)
        (dropout_0): Dropout(p=0.1, inplace=False)
      )
    )
  )
  (1): TransformerASR(
    (positional_encoding): RelPosEncXL()
    (positional_encoding_decoder): PositionalEncoding()
    (encoder): ConformerEncoder(
      (layers): ModuleList(
        (0-11): 12 x ConformerEncoderLayer(
          (mha_layer): RelPosMHAXL(
            (dropout_att): Dropout(p=0.1, inplace=False)
            (out_proj): Linear(in_features=512, out_features=512, bias=True)
            (linear_pos): Linear(in_features=512, out_features=512, bias=False)
          )
          (convolution_module): ConvolutionModule(
            (layer_norm): LayerNorm((512,), eps=1e-05, elementwise_affine=True)
            (bottleneck): Sequential(
              (0): Conv1d(512, 1024, kernel_size=(1,), stride=(1,))
              (1): GLU(dim=1)
            )
            (conv): Conv1d(512, 512, kernel_size=(31,), stride=(1,), padding=(15,), groups=512)
            (after_conv): Sequential(
              (0): LayerNorm((512,), eps=1e-05, elementwise_affine=True)
              (1): Swish(
                (silu): SiLU()
              )
              (2): Linear(in_features=512, out_features=512, bias=True)
              (3): Dropout(p=0.1, inplace=False)
            )
          )
          (ffn_module1): Sequential(
            (0): LayerNorm((512,), eps=1e-05, elementwise_affine=True)
            (1): PositionalwiseFeedForward(
              (ffn): Sequential(
                (0): Linear(in_features=512, out_features=2048, bias=True)
                (1): Swish(
                  (silu): SiLU()
                )
                (2): Dropout(p=0.1, inplace=False)
                (3): Linear(in_features=2048, out_features=512, bias=True)
              )
            )
            (2): Dropout(p=0.1, inplace=False)
          )
          (ffn_module2): Sequential(
            (0): LayerNorm((512,), eps=1e-05, elementwise_affine=True)
            (1): PositionalwiseFeedForward(
              (ffn): Sequential(
                (0): Linear(in_features=512, out_features=2048, bias=True)
                (1): Swish(
                  (silu): SiLU()
                )
                (2): Dropout(p=0.1, inplace=False)
                (3): Linear(in_features=2048, out_features=512, bias=True)
              )
            )
            (2): Dropout(p=0.1, inplace=False)
          )
          (norm1): LayerNorm(
            (norm): LayerNorm((512,), eps=1e-05, elementwise_affine=True)
          )
          (norm2): LayerNorm(
            (norm): LayerNorm((512,), eps=1e-05, elementwise_affine=True)
          )
          (drop): Dropout(p=0.1, inplace=False)
        )
      )
      (norm): LayerNorm(
        (norm): LayerNorm((512,), eps=1e-06, elementwise_affine=True)
      )
    )
    (decoder): TransformerDecoder(
      (layers): ModuleList(
        (0-5): 6 x TransformerDecoderLayer(
          (self_attn): MultiheadAttention(
            (att): MultiheadAttention(
              (out_proj): NonDynamicallyQuantizableLinear(in_features=512, out_features=512, bias=True)
            )
          )
          (multihead_attn): MultiheadAttention(
            (att): MultiheadAttention(
              (out_proj): NonDynamicallyQuantizableLinear(in_features=512, out_features=512, bias=True)
            )
          )
          (pos_ffn): PositionalwiseFeedForward(
            (ffn): Sequential(
              (0): Linear(in_features=512, out_features=2048, bias=True)
              (1): GELU(approximate='none')
              (2): Dropout(p=0.1, inplace=False)
              (3): Linear(in_features=2048, out_features=512, bias=True)
            )
          )
          (norm1): LayerNorm(
            (norm): LayerNorm((512,), eps=1e-06, elementwise_affine=True)
          )
          (norm2): LayerNorm(
            (norm): LayerNorm((512,), eps=1e-06, elementwise_affine=True)
          )
          (norm3): LayerNorm(
            (norm): LayerNorm((512,), eps=1e-06, elementwise_affine=True)
          )
          (dropout1): Dropout(p=0.1, inplace=False)
          (dropout2): Dropout(p=0.1, inplace=False)
          (dropout3): Dropout(p=0.1, inplace=False)
        )
      )
      (norm): LayerNorm(
        (norm): LayerNorm((512,), eps=1e-06, elementwise_affine=True)
      )
    )
    (custom_src_module): ModuleList(
      (layers): ModuleList(
        (0): Linear(
          (w): Linear(in_features=640, out_features=512, bias=True)
        )
        (1): Dropout(p=0.1, inplace=False)
      )
    )
    (custom_tgt_module): ModuleList(
      (layers): ModuleList(
        (0): NormalizedEmbedding(
          (emb): Embedding(
            (Embedding): Embedding(5000, 512)
          )
        )
      )
    )
    (quantizer): ResidualVectorQuantize(
      (quantizers): ModuleList(
        (0): VectorQuantize(
          (in_proj): ParametrizedConv1d(
            512, 8, kernel_size=(1,), stride=(1,)
            (parametrizations): ModuleDict(
              (weight): ParametrizationList(
                (0): _WeightNorm()
              )
            )
          )
          (out_proj): ParametrizedConv1d(
            8, 512, kernel_size=(1,), stride=(1,)
            (parametrizations): ModuleDict(
              (weight): ParametrizationList(
                (0): _WeightNorm()
              )
            )
          )
          (codebook): Embedding(8192, 8)
        )
      )
    )
  )
  (2-3): 2 x Linear(
    (w): Linear(in_features=512, out_features=5000, bias=True)
  )
) loading from /data/anakuzne/speechbrain/recipes/LibriSpeech/ASR/transformer/hopt/run1/3407/save/model.ckpt, the transferred parameters did not have parameters for the key: 1.quantizer.quantizers.0.in_proj.parametrizations.weight.original0
2025-01-23 15:47:13,140 - speechbrain.utils.checkpoints - WARNING - During parameter transfer to ModuleList(
  (0): ConvolutionFrontEnd(
    (convblock_0): ConvBlock(
      (convs): Sequential(
        (conv_0): Conv2d(
          (conv): Conv2d(1, 64, kernel_size=(3, 3), stride=(2, 2))
        )
        (norm_0): LayerNorm(
          (norm): LayerNorm((40, 64), eps=1e-05, elementwise_affine=True)
        )
        (act_0): LeakyReLU(negative_slope=0.01)
        (dropout_0): Dropout(p=0.1, inplace=False)
      )
    )
    (convblock_1): ConvBlock(
      (convs): Sequential(
        (conv_0): Conv2d(
          (conv): Conv2d(64, 32, kernel_size=(3, 3), stride=(2, 2))
        )
        (norm_0): LayerNorm(
          (norm): LayerNorm((20, 32), eps=1e-05, elementwise_affine=True)
        )
        (act_0): LeakyReLU(negative_slope=0.01)
        (dropout_0): Dropout(p=0.1, inplace=False)
      )
    )
  )
  (1): TransformerASR(
    (positional_encoding): RelPosEncXL()
    (positional_encoding_decoder): PositionalEncoding()
    (encoder): ConformerEncoder(
      (layers): ModuleList(
        (0-11): 12 x ConformerEncoderLayer(
          (mha_layer): RelPosMHAXL(
            (dropout_att): Dropout(p=0.1, inplace=False)
            (out_proj): Linear(in_features=512, out_features=512, bias=True)
            (linear_pos): Linear(in_features=512, out_features=512, bias=False)
          )
          (convolution_module): ConvolutionModule(
            (layer_norm): LayerNorm((512,), eps=1e-05, elementwise_affine=True)
            (bottleneck): Sequential(
              (0): Conv1d(512, 1024, kernel_size=(1,), stride=(1,))
              (1): GLU(dim=1)
            )
            (conv): Conv1d(512, 512, kernel_size=(31,), stride=(1,), padding=(15,), groups=512)
            (after_conv): Sequential(
              (0): LayerNorm((512,), eps=1e-05, elementwise_affine=True)
              (1): Swish(
                (silu): SiLU()
              )
              (2): Linear(in_features=512, out_features=512, bias=True)
              (3): Dropout(p=0.1, inplace=False)
            )
          )
          (ffn_module1): Sequential(
            (0): LayerNorm((512,), eps=1e-05, elementwise_affine=True)
            (1): PositionalwiseFeedForward(
              (ffn): Sequential(
                (0): Linear(in_features=512, out_features=2048, bias=True)
                (1): Swish(
                  (silu): SiLU()
                )
                (2): Dropout(p=0.1, inplace=False)
                (3): Linear(in_features=2048, out_features=512, bias=True)
              )
            )
            (2): Dropout(p=0.1, inplace=False)
          )
          (ffn_module2): Sequential(
            (0): LayerNorm((512,), eps=1e-05, elementwise_affine=True)
            (1): PositionalwiseFeedForward(
              (ffn): Sequential(
                (0): Linear(in_features=512, out_features=2048, bias=True)
                (1): Swish(
                  (silu): SiLU()
                )
                (2): Dropout(p=0.1, inplace=False)
                (3): Linear(in_features=2048, out_features=512, bias=True)
              )
            )
            (2): Dropout(p=0.1, inplace=False)
          )
          (norm1): LayerNorm(
            (norm): LayerNorm((512,), eps=1e-05, elementwise_affine=True)
          )
          (norm2): LayerNorm(
            (norm): LayerNorm((512,), eps=1e-05, elementwise_affine=True)
          )
          (drop): Dropout(p=0.1, inplace=False)
        )
      )
      (norm): LayerNorm(
        (norm): LayerNorm((512,), eps=1e-06, elementwise_affine=True)
      )
    )
    (decoder): TransformerDecoder(
      (layers): ModuleList(
        (0-5): 6 x TransformerDecoderLayer(
          (self_attn): MultiheadAttention(
            (att): MultiheadAttention(
              (out_proj): NonDynamicallyQuantizableLinear(in_features=512, out_features=512, bias=True)
            )
          )
          (multihead_attn): MultiheadAttention(
            (att): MultiheadAttention(
              (out_proj): NonDynamicallyQuantizableLinear(in_features=512, out_features=512, bias=True)
            )
          )
          (pos_ffn): PositionalwiseFeedForward(
            (ffn): Sequential(
              (0): Linear(in_features=512, out_features=2048, bias=True)
              (1): GELU(approximate='none')
              (2): Dropout(p=0.1, inplace=False)
              (3): Linear(in_features=2048, out_features=512, bias=True)
            )
          )
          (norm1): LayerNorm(
            (norm): LayerNorm((512,), eps=1e-06, elementwise_affine=True)
          )
          (norm2): LayerNorm(
            (norm): LayerNorm((512,), eps=1e-06, elementwise_affine=True)
          )
          (norm3): LayerNorm(
            (norm): LayerNorm((512,), eps=1e-06, elementwise_affine=True)
          )
          (dropout1): Dropout(p=0.1, inplace=False)
          (dropout2): Dropout(p=0.1, inplace=False)
          (dropout3): Dropout(p=0.1, inplace=False)
        )
      )
      (norm): LayerNorm(
        (norm): LayerNorm((512,), eps=1e-06, elementwise_affine=True)
      )
    )
    (custom_src_module): ModuleList(
      (layers): ModuleList(
        (0): Linear(
          (w): Linear(in_features=640, out_features=512, bias=True)
        )
        (1): Dropout(p=0.1, inplace=False)
      )
    )
    (custom_tgt_module): ModuleList(
      (layers): ModuleList(
        (0): NormalizedEmbedding(
          (emb): Embedding(
            (Embedding): Embedding(5000, 512)
          )
        )
      )
    )
    (quantizer): ResidualVectorQuantize(
      (quantizers): ModuleList(
        (0): VectorQuantize(
          (in_proj): ParametrizedConv1d(
            512, 8, kernel_size=(1,), stride=(1,)
            (parametrizations): ModuleDict(
              (weight): ParametrizationList(
                (0): _WeightNorm()
              )
            )
          )
          (out_proj): ParametrizedConv1d(
            8, 512, kernel_size=(1,), stride=(1,)
            (parametrizations): ModuleDict(
              (weight): ParametrizationList(
                (0): _WeightNorm()
              )
            )
          )
          (codebook): Embedding(8192, 8)
        )
      )
    )
  )
  (2-3): 2 x Linear(
    (w): Linear(in_features=512, out_features=5000, bias=True)
  )
) loading from /data/anakuzne/speechbrain/recipes/LibriSpeech/ASR/transformer/hopt/run1/3407/save/model.ckpt, the transferred parameters did not have parameters for the key: 1.quantizer.quantizers.0.in_proj.parametrizations.weight.original1
2025-01-23 15:47:13,144 - speechbrain.utils.checkpoints - WARNING - During parameter transfer to ModuleList(
  (0): ConvolutionFrontEnd(
    (convblock_0): ConvBlock(
      (convs): Sequential(
        (conv_0): Conv2d(
          (conv): Conv2d(1, 64, kernel_size=(3, 3), stride=(2, 2))
        )
        (norm_0): LayerNorm(
          (norm): LayerNorm((40, 64), eps=1e-05, elementwise_affine=True)
        )
        (act_0): LeakyReLU(negative_slope=0.01)
        (dropout_0): Dropout(p=0.1, inplace=False)
      )
    )
    (convblock_1): ConvBlock(
      (convs): Sequential(
        (conv_0): Conv2d(
          (conv): Conv2d(64, 32, kernel_size=(3, 3), stride=(2, 2))
        )
        (norm_0): LayerNorm(
          (norm): LayerNorm((20, 32), eps=1e-05, elementwise_affine=True)
        )
        (act_0): LeakyReLU(negative_slope=0.01)
        (dropout_0): Dropout(p=0.1, inplace=False)
      )
    )
  )
  (1): TransformerASR(
    (positional_encoding): RelPosEncXL()
    (positional_encoding_decoder): PositionalEncoding()
    (encoder): ConformerEncoder(
      (layers): ModuleList(
        (0-11): 12 x ConformerEncoderLayer(
          (mha_layer): RelPosMHAXL(
            (dropout_att): Dropout(p=0.1, inplace=False)
            (out_proj): Linear(in_features=512, out_features=512, bias=True)
            (linear_pos): Linear(in_features=512, out_features=512, bias=False)
          )
          (convolution_module): ConvolutionModule(
            (layer_norm): LayerNorm((512,), eps=1e-05, elementwise_affine=True)
            (bottleneck): Sequential(
              (0): Conv1d(512, 1024, kernel_size=(1,), stride=(1,))
              (1): GLU(dim=1)
            )
            (conv): Conv1d(512, 512, kernel_size=(31,), stride=(1,), padding=(15,), groups=512)
            (after_conv): Sequential(
              (0): LayerNorm((512,), eps=1e-05, elementwise_affine=True)
              (1): Swish(
                (silu): SiLU()
              )
              (2): Linear(in_features=512, out_features=512, bias=True)
              (3): Dropout(p=0.1, inplace=False)
            )
          )
          (ffn_module1): Sequential(
            (0): LayerNorm((512,), eps=1e-05, elementwise_affine=True)
            (1): PositionalwiseFeedForward(
              (ffn): Sequential(
                (0): Linear(in_features=512, out_features=2048, bias=True)
                (1): Swish(
                  (silu): SiLU()
                )
                (2): Dropout(p=0.1, inplace=False)
                (3): Linear(in_features=2048, out_features=512, bias=True)
              )
            )
            (2): Dropout(p=0.1, inplace=False)
          )
          (ffn_module2): Sequential(
            (0): LayerNorm((512,), eps=1e-05, elementwise_affine=True)
            (1): PositionalwiseFeedForward(
              (ffn): Sequential(
                (0): Linear(in_features=512, out_features=2048, bias=True)
                (1): Swish(
                  (silu): SiLU()
                )
                (2): Dropout(p=0.1, inplace=False)
                (3): Linear(in_features=2048, out_features=512, bias=True)
              )
            )
            (2): Dropout(p=0.1, inplace=False)
          )
          (norm1): LayerNorm(
            (norm): LayerNorm((512,), eps=1e-05, elementwise_affine=True)
          )
          (norm2): LayerNorm(
            (norm): LayerNorm((512,), eps=1e-05, elementwise_affine=True)
          )
          (drop): Dropout(p=0.1, inplace=False)
        )
      )
      (norm): LayerNorm(
        (norm): LayerNorm((512,), eps=1e-06, elementwise_affine=True)
      )
    )
    (decoder): TransformerDecoder(
      (layers): ModuleList(
        (0-5): 6 x TransformerDecoderLayer(
          (self_attn): MultiheadAttention(
            (att): MultiheadAttention(
              (out_proj): NonDynamicallyQuantizableLinear(in_features=512, out_features=512, bias=True)
            )
          )
          (multihead_attn): MultiheadAttention(
            (att): MultiheadAttention(
              (out_proj): NonDynamicallyQuantizableLinear(in_features=512, out_features=512, bias=True)
            )
          )
          (pos_ffn): PositionalwiseFeedForward(
            (ffn): Sequential(
              (0): Linear(in_features=512, out_features=2048, bias=True)
              (1): GELU(approximate='none')
              (2): Dropout(p=0.1, inplace=False)
              (3): Linear(in_features=2048, out_features=512, bias=True)
            )
          )
          (norm1): LayerNorm(
            (norm): LayerNorm((512,), eps=1e-06, elementwise_affine=True)
          )
          (norm2): LayerNorm(
            (norm): LayerNorm((512,), eps=1e-06, elementwise_affine=True)
          )
          (norm3): LayerNorm(
            (norm): LayerNorm((512,), eps=1e-06, elementwise_affine=True)
          )
          (dropout1): Dropout(p=0.1, inplace=False)
          (dropout2): Dropout(p=0.1, inplace=False)
          (dropout3): Dropout(p=0.1, inplace=False)
        )
      )
      (norm): LayerNorm(
        (norm): LayerNorm((512,), eps=1e-06, elementwise_affine=True)
      )
    )
    (custom_src_module): ModuleList(
      (layers): ModuleList(
        (0): Linear(
          (w): Linear(in_features=640, out_features=512, bias=True)
        )
        (1): Dropout(p=0.1, inplace=False)
      )
    )
    (custom_tgt_module): ModuleList(
      (layers): ModuleList(
        (0): NormalizedEmbedding(
          (emb): Embedding(
            (Embedding): Embedding(5000, 512)
          )
        )
      )
    )
    (quantizer): ResidualVectorQuantize(
      (quantizers): ModuleList(
        (0): VectorQuantize(
          (in_proj): ParametrizedConv1d(
            512, 8, kernel_size=(1,), stride=(1,)
            (parametrizations): ModuleDict(
              (weight): ParametrizationList(
                (0): _WeightNorm()
              )
            )
          )
          (out_proj): ParametrizedConv1d(
            8, 512, kernel_size=(1,), stride=(1,)
            (parametrizations): ModuleDict(
              (weight): ParametrizationList(
                (0): _WeightNorm()
              )
            )
          )
          (codebook): Embedding(8192, 8)
        )
      )
    )
  )
  (2-3): 2 x Linear(
    (w): Linear(in_features=512, out_features=5000, bias=True)
  )
) loading from /data/anakuzne/speechbrain/recipes/LibriSpeech/ASR/transformer/hopt/run1/3407/save/model.ckpt, the transferred parameters did not have parameters for the key: 1.quantizer.quantizers.0.out_proj.bias
2025-01-23 15:47:13,147 - speechbrain.utils.checkpoints - WARNING - During parameter transfer to ModuleList(
  (0): ConvolutionFrontEnd(
    (convblock_0): ConvBlock(
      (convs): Sequential(
        (conv_0): Conv2d(
          (conv): Conv2d(1, 64, kernel_size=(3, 3), stride=(2, 2))
        )
        (norm_0): LayerNorm(
          (norm): LayerNorm((40, 64), eps=1e-05, elementwise_affine=True)
        )
        (act_0): LeakyReLU(negative_slope=0.01)
        (dropout_0): Dropout(p=0.1, inplace=False)
      )
    )
    (convblock_1): ConvBlock(
      (convs): Sequential(
        (conv_0): Conv2d(
          (conv): Conv2d(64, 32, kernel_size=(3, 3), stride=(2, 2))
        )
        (norm_0): LayerNorm(
          (norm): LayerNorm((20, 32), eps=1e-05, elementwise_affine=True)
        )
        (act_0): LeakyReLU(negative_slope=0.01)
        (dropout_0): Dropout(p=0.1, inplace=False)
      )
    )
  )
  (1): TransformerASR(
    (positional_encoding): RelPosEncXL()
    (positional_encoding_decoder): PositionalEncoding()
    (encoder): ConformerEncoder(
      (layers): ModuleList(
        (0-11): 12 x ConformerEncoderLayer(
          (mha_layer): RelPosMHAXL(
            (dropout_att): Dropout(p=0.1, inplace=False)
            (out_proj): Linear(in_features=512, out_features=512, bias=True)
            (linear_pos): Linear(in_features=512, out_features=512, bias=False)
          )
          (convolution_module): ConvolutionModule(
            (layer_norm): LayerNorm((512,), eps=1e-05, elementwise_affine=True)
            (bottleneck): Sequential(
              (0): Conv1d(512, 1024, kernel_size=(1,), stride=(1,))
              (1): GLU(dim=1)
            )
            (conv): Conv1d(512, 512, kernel_size=(31,), stride=(1,), padding=(15,), groups=512)
            (after_conv): Sequential(
              (0): LayerNorm((512,), eps=1e-05, elementwise_affine=True)
              (1): Swish(
                (silu): SiLU()
              )
              (2): Linear(in_features=512, out_features=512, bias=True)
              (3): Dropout(p=0.1, inplace=False)
            )
          )
          (ffn_module1): Sequential(
            (0): LayerNorm((512,), eps=1e-05, elementwise_affine=True)
            (1): PositionalwiseFeedForward(
              (ffn): Sequential(
                (0): Linear(in_features=512, out_features=2048, bias=True)
                (1): Swish(
                  (silu): SiLU()
                )
                (2): Dropout(p=0.1, inplace=False)
                (3): Linear(in_features=2048, out_features=512, bias=True)
              )
            )
            (2): Dropout(p=0.1, inplace=False)
          )
          (ffn_module2): Sequential(
            (0): LayerNorm((512,), eps=1e-05, elementwise_affine=True)
            (1): PositionalwiseFeedForward(
              (ffn): Sequential(
                (0): Linear(in_features=512, out_features=2048, bias=True)
                (1): Swish(
                  (silu): SiLU()
                )
                (2): Dropout(p=0.1, inplace=False)
                (3): Linear(in_features=2048, out_features=512, bias=True)
              )
            )
            (2): Dropout(p=0.1, inplace=False)
          )
          (norm1): LayerNorm(
            (norm): LayerNorm((512,), eps=1e-05, elementwise_affine=True)
          )
          (norm2): LayerNorm(
            (norm): LayerNorm((512,), eps=1e-05, elementwise_affine=True)
          )
          (drop): Dropout(p=0.1, inplace=False)
        )
      )
      (norm): LayerNorm(
        (norm): LayerNorm((512,), eps=1e-06, elementwise_affine=True)
      )
    )
    (decoder): TransformerDecoder(
      (layers): ModuleList(
        (0-5): 6 x TransformerDecoderLayer(
          (self_attn): MultiheadAttention(
            (att): MultiheadAttention(
              (out_proj): NonDynamicallyQuantizableLinear(in_features=512, out_features=512, bias=True)
            )
          )
          (multihead_attn): MultiheadAttention(
            (att): MultiheadAttention(
              (out_proj): NonDynamicallyQuantizableLinear(in_features=512, out_features=512, bias=True)
            )
          )
          (pos_ffn): PositionalwiseFeedForward(
            (ffn): Sequential(
              (0): Linear(in_features=512, out_features=2048, bias=True)
              (1): GELU(approximate='none')
              (2): Dropout(p=0.1, inplace=False)
              (3): Linear(in_features=2048, out_features=512, bias=True)
            )
          )
          (norm1): LayerNorm(
            (norm): LayerNorm((512,), eps=1e-06, elementwise_affine=True)
          )
          (norm2): LayerNorm(
            (norm): LayerNorm((512,), eps=1e-06, elementwise_affine=True)
          )
          (norm3): LayerNorm(
            (norm): LayerNorm((512,), eps=1e-06, elementwise_affine=True)
          )
          (dropout1): Dropout(p=0.1, inplace=False)
          (dropout2): Dropout(p=0.1, inplace=False)
          (dropout3): Dropout(p=0.1, inplace=False)
        )
      )
      (norm): LayerNorm(
        (norm): LayerNorm((512,), eps=1e-06, elementwise_affine=True)
      )
    )
    (custom_src_module): ModuleList(
      (layers): ModuleList(
        (0): Linear(
          (w): Linear(in_features=640, out_features=512, bias=True)
        )
        (1): Dropout(p=0.1, inplace=False)
      )
    )
    (custom_tgt_module): ModuleList(
      (layers): ModuleList(
        (0): NormalizedEmbedding(
          (emb): Embedding(
            (Embedding): Embedding(5000, 512)
          )
        )
      )
    )
    (quantizer): ResidualVectorQuantize(
      (quantizers): ModuleList(
        (0): VectorQuantize(
          (in_proj): ParametrizedConv1d(
            512, 8, kernel_size=(1,), stride=(1,)
            (parametrizations): ModuleDict(
              (weight): ParametrizationList(
                (0): _WeightNorm()
              )
            )
          )
          (out_proj): ParametrizedConv1d(
            8, 512, kernel_size=(1,), stride=(1,)
            (parametrizations): ModuleDict(
              (weight): ParametrizationList(
                (0): _WeightNorm()
              )
            )
          )
          (codebook): Embedding(8192, 8)
        )
      )
    )
  )
  (2-3): 2 x Linear(
    (w): Linear(in_features=512, out_features=5000, bias=True)
  )
) loading from /data/anakuzne/speechbrain/recipes/LibriSpeech/ASR/transformer/hopt/run1/3407/save/model.ckpt, the transferred parameters did not have parameters for the key: 1.quantizer.quantizers.0.out_proj.parametrizations.weight.original0
2025-01-23 15:47:13,150 - speechbrain.utils.checkpoints - WARNING - During parameter transfer to ModuleList(
  (0): ConvolutionFrontEnd(
    (convblock_0): ConvBlock(
      (convs): Sequential(
        (conv_0): Conv2d(
          (conv): Conv2d(1, 64, kernel_size=(3, 3), stride=(2, 2))
        )
        (norm_0): LayerNorm(
          (norm): LayerNorm((40, 64), eps=1e-05, elementwise_affine=True)
        )
        (act_0): LeakyReLU(negative_slope=0.01)
        (dropout_0): Dropout(p=0.1, inplace=False)
      )
    )
    (convblock_1): ConvBlock(
      (convs): Sequential(
        (conv_0): Conv2d(
          (conv): Conv2d(64, 32, kernel_size=(3, 3), stride=(2, 2))
        )
        (norm_0): LayerNorm(
          (norm): LayerNorm((20, 32), eps=1e-05, elementwise_affine=True)
        )
        (act_0): LeakyReLU(negative_slope=0.01)
        (dropout_0): Dropout(p=0.1, inplace=False)
      )
    )
  )
  (1): TransformerASR(
    (positional_encoding): RelPosEncXL()
    (positional_encoding_decoder): PositionalEncoding()
    (encoder): ConformerEncoder(
      (layers): ModuleList(
        (0-11): 12 x ConformerEncoderLayer(
          (mha_layer): RelPosMHAXL(
            (dropout_att): Dropout(p=0.1, inplace=False)
            (out_proj): Linear(in_features=512, out_features=512, bias=True)
            (linear_pos): Linear(in_features=512, out_features=512, bias=False)
          )
          (convolution_module): ConvolutionModule(
            (layer_norm): LayerNorm((512,), eps=1e-05, elementwise_affine=True)
            (bottleneck): Sequential(
              (0): Conv1d(512, 1024, kernel_size=(1,), stride=(1,))
              (1): GLU(dim=1)
            )
            (conv): Conv1d(512, 512, kernel_size=(31,), stride=(1,), padding=(15,), groups=512)
            (after_conv): Sequential(
              (0): LayerNorm((512,), eps=1e-05, elementwise_affine=True)
              (1): Swish(
                (silu): SiLU()
              )
              (2): Linear(in_features=512, out_features=512, bias=True)
              (3): Dropout(p=0.1, inplace=False)
            )
          )
          (ffn_module1): Sequential(
            (0): LayerNorm((512,), eps=1e-05, elementwise_affine=True)
            (1): PositionalwiseFeedForward(
              (ffn): Sequential(
                (0): Linear(in_features=512, out_features=2048, bias=True)
                (1): Swish(
                  (silu): SiLU()
                )
                (2): Dropout(p=0.1, inplace=False)
                (3): Linear(in_features=2048, out_features=512, bias=True)
              )
            )
            (2): Dropout(p=0.1, inplace=False)
          )
          (ffn_module2): Sequential(
            (0): LayerNorm((512,), eps=1e-05, elementwise_affine=True)
            (1): PositionalwiseFeedForward(
              (ffn): Sequential(
                (0): Linear(in_features=512, out_features=2048, bias=True)
                (1): Swish(
                  (silu): SiLU()
                )
                (2): Dropout(p=0.1, inplace=False)
                (3): Linear(in_features=2048, out_features=512, bias=True)
              )
            )
            (2): Dropout(p=0.1, inplace=False)
          )
          (norm1): LayerNorm(
            (norm): LayerNorm((512,), eps=1e-05, elementwise_affine=True)
          )
          (norm2): LayerNorm(
            (norm): LayerNorm((512,), eps=1e-05, elementwise_affine=True)
          )
          (drop): Dropout(p=0.1, inplace=False)
        )
      )
      (norm): LayerNorm(
        (norm): LayerNorm((512,), eps=1e-06, elementwise_affine=True)
      )
    )
    (decoder): TransformerDecoder(
      (layers): ModuleList(
        (0-5): 6 x TransformerDecoderLayer(
          (self_attn): MultiheadAttention(
            (att): MultiheadAttention(
              (out_proj): NonDynamicallyQuantizableLinear(in_features=512, out_features=512, bias=True)
            )
          )
          (multihead_attn): MultiheadAttention(
            (att): MultiheadAttention(
              (out_proj): NonDynamicallyQuantizableLinear(in_features=512, out_features=512, bias=True)
            )
          )
          (pos_ffn): PositionalwiseFeedForward(
            (ffn): Sequential(
              (0): Linear(in_features=512, out_features=2048, bias=True)
              (1): GELU(approximate='none')
              (2): Dropout(p=0.1, inplace=False)
              (3): Linear(in_features=2048, out_features=512, bias=True)
            )
          )
          (norm1): LayerNorm(
            (norm): LayerNorm((512,), eps=1e-06, elementwise_affine=True)
          )
          (norm2): LayerNorm(
            (norm): LayerNorm((512,), eps=1e-06, elementwise_affine=True)
          )
          (norm3): LayerNorm(
            (norm): LayerNorm((512,), eps=1e-06, elementwise_affine=True)
          )
          (dropout1): Dropout(p=0.1, inplace=False)
          (dropout2): Dropout(p=0.1, inplace=False)
          (dropout3): Dropout(p=0.1, inplace=False)
        )
      )
      (norm): LayerNorm(
        (norm): LayerNorm((512,), eps=1e-06, elementwise_affine=True)
      )
    )
    (custom_src_module): ModuleList(
      (layers): ModuleList(
        (0): Linear(
          (w): Linear(in_features=640, out_features=512, bias=True)
        )
        (1): Dropout(p=0.1, inplace=False)
      )
    )
    (custom_tgt_module): ModuleList(
      (layers): ModuleList(
        (0): NormalizedEmbedding(
          (emb): Embedding(
            (Embedding): Embedding(5000, 512)
          )
        )
      )
    )
    (quantizer): ResidualVectorQuantize(
      (quantizers): ModuleList(
        (0): VectorQuantize(
          (in_proj): ParametrizedConv1d(
            512, 8, kernel_size=(1,), stride=(1,)
            (parametrizations): ModuleDict(
              (weight): ParametrizationList(
                (0): _WeightNorm()
              )
            )
          )
          (out_proj): ParametrizedConv1d(
            8, 512, kernel_size=(1,), stride=(1,)
            (parametrizations): ModuleDict(
              (weight): ParametrizationList(
                (0): _WeightNorm()
              )
            )
          )
          (codebook): Embedding(8192, 8)
        )
      )
    )
  )
  (2-3): 2 x Linear(
    (w): Linear(in_features=512, out_features=5000, bias=True)
  )
) loading from /data/anakuzne/speechbrain/recipes/LibriSpeech/ASR/transformer/hopt/run1/3407/save/model.ckpt, the transferred parameters did not have parameters for the key: 1.quantizer.quantizers.0.out_proj.parametrizations.weight.original1
2025-01-23 15:47:13,153 - speechbrain.utils.checkpoints - WARNING - During parameter transfer to ModuleList(
  (0): ConvolutionFrontEnd(
    (convblock_0): ConvBlock(
      (convs): Sequential(
        (conv_0): Conv2d(
          (conv): Conv2d(1, 64, kernel_size=(3, 3), stride=(2, 2))
        )
        (norm_0): LayerNorm(
          (norm): LayerNorm((40, 64), eps=1e-05, elementwise_affine=True)
        )
        (act_0): LeakyReLU(negative_slope=0.01)
        (dropout_0): Dropout(p=0.1, inplace=False)
      )
    )
    (convblock_1): ConvBlock(
      (convs): Sequential(
        (conv_0): Conv2d(
          (conv): Conv2d(64, 32, kernel_size=(3, 3), stride=(2, 2))
        )
        (norm_0): LayerNorm(
          (norm): LayerNorm((20, 32), eps=1e-05, elementwise_affine=True)
        )
        (act_0): LeakyReLU(negative_slope=0.01)
        (dropout_0): Dropout(p=0.1, inplace=False)
      )
    )
  )
  (1): TransformerASR(
    (positional_encoding): RelPosEncXL()
    (positional_encoding_decoder): PositionalEncoding()
    (encoder): ConformerEncoder(
      (layers): ModuleList(
        (0-11): 12 x ConformerEncoderLayer(
          (mha_layer): RelPosMHAXL(
            (dropout_att): Dropout(p=0.1, inplace=False)
            (out_proj): Linear(in_features=512, out_features=512, bias=True)
            (linear_pos): Linear(in_features=512, out_features=512, bias=False)
          )
          (convolution_module): ConvolutionModule(
            (layer_norm): LayerNorm((512,), eps=1e-05, elementwise_affine=True)
            (bottleneck): Sequential(
              (0): Conv1d(512, 1024, kernel_size=(1,), stride=(1,))
              (1): GLU(dim=1)
            )
            (conv): Conv1d(512, 512, kernel_size=(31,), stride=(1,), padding=(15,), groups=512)
            (after_conv): Sequential(
              (0): LayerNorm((512,), eps=1e-05, elementwise_affine=True)
              (1): Swish(
                (silu): SiLU()
              )
              (2): Linear(in_features=512, out_features=512, bias=True)
              (3): Dropout(p=0.1, inplace=False)
            )
          )
          (ffn_module1): Sequential(
            (0): LayerNorm((512,), eps=1e-05, elementwise_affine=True)
            (1): PositionalwiseFeedForward(
              (ffn): Sequential(
                (0): Linear(in_features=512, out_features=2048, bias=True)
                (1): Swish(
                  (silu): SiLU()
                )
                (2): Dropout(p=0.1, inplace=False)
                (3): Linear(in_features=2048, out_features=512, bias=True)
              )
            )
            (2): Dropout(p=0.1, inplace=False)
          )
          (ffn_module2): Sequential(
            (0): LayerNorm((512,), eps=1e-05, elementwise_affine=True)
            (1): PositionalwiseFeedForward(
              (ffn): Sequential(
                (0): Linear(in_features=512, out_features=2048, bias=True)
                (1): Swish(
                  (silu): SiLU()
                )
                (2): Dropout(p=0.1, inplace=False)
                (3): Linear(in_features=2048, out_features=512, bias=True)
              )
            )
            (2): Dropout(p=0.1, inplace=False)
          )
          (norm1): LayerNorm(
            (norm): LayerNorm((512,), eps=1e-05, elementwise_affine=True)
          )
          (norm2): LayerNorm(
            (norm): LayerNorm((512,), eps=1e-05, elementwise_affine=True)
          )
          (drop): Dropout(p=0.1, inplace=False)
        )
      )
      (norm): LayerNorm(
        (norm): LayerNorm((512,), eps=1e-06, elementwise_affine=True)
      )
    )
    (decoder): TransformerDecoder(
      (layers): ModuleList(
        (0-5): 6 x TransformerDecoderLayer(
          (self_attn): MultiheadAttention(
            (att): MultiheadAttention(
              (out_proj): NonDynamicallyQuantizableLinear(in_features=512, out_features=512, bias=True)
            )
          )
          (multihead_attn): MultiheadAttention(
            (att): MultiheadAttention(
              (out_proj): NonDynamicallyQuantizableLinear(in_features=512, out_features=512, bias=True)
            )
          )
          (pos_ffn): PositionalwiseFeedForward(
            (ffn): Sequential(
              (0): Linear(in_features=512, out_features=2048, bias=True)
              (1): GELU(approximate='none')
              (2): Dropout(p=0.1, inplace=False)
              (3): Linear(in_features=2048, out_features=512, bias=True)
            )
          )
          (norm1): LayerNorm(
            (norm): LayerNorm((512,), eps=1e-06, elementwise_affine=True)
          )
          (norm2): LayerNorm(
            (norm): LayerNorm((512,), eps=1e-06, elementwise_affine=True)
          )
          (norm3): LayerNorm(
            (norm): LayerNorm((512,), eps=1e-06, elementwise_affine=True)
          )
          (dropout1): Dropout(p=0.1, inplace=False)
          (dropout2): Dropout(p=0.1, inplace=False)
          (dropout3): Dropout(p=0.1, inplace=False)
        )
      )
      (norm): LayerNorm(
        (norm): LayerNorm((512,), eps=1e-06, elementwise_affine=True)
      )
    )
    (custom_src_module): ModuleList(
      (layers): ModuleList(
        (0): Linear(
          (w): Linear(in_features=640, out_features=512, bias=True)
        )
        (1): Dropout(p=0.1, inplace=False)
      )
    )
    (custom_tgt_module): ModuleList(
      (layers): ModuleList(
        (0): NormalizedEmbedding(
          (emb): Embedding(
            (Embedding): Embedding(5000, 512)
          )
        )
      )
    )
    (quantizer): ResidualVectorQuantize(
      (quantizers): ModuleList(
        (0): VectorQuantize(
          (in_proj): ParametrizedConv1d(
            512, 8, kernel_size=(1,), stride=(1,)
            (parametrizations): ModuleDict(
              (weight): ParametrizationList(
                (0): _WeightNorm()
              )
            )
          )
          (out_proj): ParametrizedConv1d(
            8, 512, kernel_size=(1,), stride=(1,)
            (parametrizations): ModuleDict(
              (weight): ParametrizationList(
                (0): _WeightNorm()
              )
            )
          )
          (codebook): Embedding(8192, 8)
        )
      )
    )
  )
  (2-3): 2 x Linear(
    (w): Linear(in_features=512, out_features=5000, bias=True)
  )
) loading from /data/anakuzne/speechbrain/recipes/LibriSpeech/ASR/transformer/hopt/run1/3407/save/model.ckpt, the transferred parameters did not have parameters for the key: 1.quantizer.quantizers.0.codebook.weight
2025-01-23 15:47:13,154 - speechbrain.core - INFO - Info: precision arg from hparam file is used
2025-01-23 15:47:13,154 - speechbrain.core - INFO - Info: max_grad_norm arg from hparam file is used
…
